models/best_model.pt (torch_old, 557973 bytes, 8 tensors)

project_layer.weight f4 [128, 39]
00000000: 7956 2fbe c563 d23d 3cb4 2cbd a925 edbd
00000010: 095a c6bd 3e65 123e 7d76 593d f3a7 d23d
00000020: a19a 75bc 7515 afbd b662 23be 6d7e dcbd
00000030: 400c 96bd 7e2c db3d fb67 d33b ae70 20be
00000040: 6696 9d3d b707 263e a422 cc3b a80c 63bd
00000050: 5baa c33d 490b cfbd 1139 1cbe ba24 a6bc
00000060: 2eeb 58bc 31f0 033e cfa3 5b3d d675 1cbe
00000070: 857f e63d 01d0 de3d 2810 173e 93be 643d
00000080: 3cdc 1c3e 805c fbbd 3104 e03d bdaa 35bd
00000090: 439a 843d 3e6d 9cbd dff5 cbb9 8d83 0cbe
000000a0: fc69 88bd b3ea 0b3e b700 80bc 3555 013d
000000b0: 56cc b4bd 5a1a ecbd 0b03 10be cf4d 9bbc
000000c0: 063b ffbd 7bbb 233e 465d 013d 0cba e43c
000000d0: a02a a6bd 5958 e43d 25e8 fe3c 9ff6 7abd
000000e0: 08a2 063d aa57 20be 0fd2 943d 39aa 15be
000000f0: b22d 343d d813 82bc 4035 043e a832 34bd
00000100: 0024 fd3d 3852 1c3e 448a f93d 4b95 013e
00000110: 261c c33d 3a5d 69bd aac5 993c 07bf d83d
00000120: 6813 033e 10bd 23bd fbe8 1dbe 5572 a33c
00000130: a5c2 9e3d 6db9 19be 7868 3fbe 7194 433e
00000140: 85c9 1fbd 06ee 12be 7329 6f3d 2c9d 0abe
00000150: 088c b13d 2074 03be 555d c3bc cc7c 1c3e
00000160: 768a 0fbd 6668 633c 7bee ff3d 1416 66bd
00000170: a1aa 54bc fd50 15be 88d4 5fbd 7d9e 19bd
00000180: da7a 1fbe c572 b93c 0b59 02be e7b8 19be
00000190: 648c 8abd 13ce 9fbd 68f2 adbd a669 adbd
000001a0: 7330 dabd 823b 233c e435 f63d a5d6 cd3d
000001b0: 1310 73bd 8109 cabd 185c f03d d914 213e
000001c0: 0742 33bd acae 223e 9ce0 133e 9f01 023d
000001d0: 4d45 453d 0325 103e b9d9 cb3c 6b42 61bd
000001e0: 69fc 83bd 7887 63bd ec73 1abe e15c 15be
000001f0: 6eea 61bc 584c cab9 8b0d 923d f989 c6bd
00000200: 963d 99bd 7bc7 b0ba be8a 713c 373d fb3d
00000210: e212 713c f63f f5bc 52f5 213e 3048 e6bd
00000220: 0875 cd3d dd70 ccbd 5a40 243e 10dc a5bd
00000230: 6b2e 9c3d 6a64 203e 4ad2 b33d 7d1b 0e3e
00000240: 0797 fdbd d6a8 cd3d 9fc4 8fbc a7da 7e3c
00000250: 0390 8cbd 7788 12be 0bc3 17be 6941 aabd
00000260: c9ab f1bd a29f 8a3b 203d 0ebd 785e 51bc
00000270: c8b3 293d aa3b 5fbd 0505 f93d 5312 0e3d
00000280: e61a 783d 6d29 5a3d 0cb5 f0bd 38c6 523c
00000290: 02be 2dbe 5bfd 01be ea29 863d a82c ba3b
000002a0: eff7 cc3d 34ff 163e c9d8 57bd 6b45 ca3d
000002b0: 5cfd c53c c16d 413d 54b4 0d3e e7ff a9bd
000002c0: 40eb 563b fd35 f43b 60d5 26bd 0df0 ae3c
000002d0: 6807 033e ec28 a43d baa4 153c 153f 08bd
000002e0: b5a6 2b3d 6ca5 babc ef18 ad3d 1bb6 f63d
000002f0: e966 ca3d e417 a3bd 77d7 76bd 5204 623d
00000300: 450b 013e 0d76 01be ef06 e4bd 0b2e bdbd
00000310: 30c5 d4bd ca4a 163e 3df4 f93d 8aa8 293d
00000320: d502 ff3d 4c32 61bd 6e73 15be 0d30 0dbe
00000330: 8fdb fa3d 1c47 e23d b3dc 6b3d 7ca2 1e3b
00000340: ce21 0c3e 6884 943d a572 3abd 4493 b1bd
00000350: 018e c7bd 32f6 96bc 4746 a0bd 53c9 da3d
00000360: 5883 973b cc14 4b3d 9b50 d63b 55ce f43d
00000370: ee7d 063e d191 85bd 39de a7bd 26af cb3d
00000380: c6c3 59bd 641a a5bc da70 b13c dd02 d6bd
00000390: 21c8 093e 7ec9 fc3d 3152 2fbd 6ef5 3dbd
000003a0: 8db3 23be d2c4 183e 5df2 d7bd ada8 243e
000003b0: f364 d9bc ee4f bcbd eb78 073e 5b40 af3d
000003c0: 8b8f 89bc 4243 9d3c 8718 11be 61ae 8e3d
000003d0: 9789 c1bd 5753 083e 29a1 67bd 57fc 3e3d
000003e0: 59c4 003e 70b3 b5bd 98a8 0d3e b29d d7bc
000003f0: 2a83 8a3c aec5 24be 6e64 1e3d 6bde 24be
-0.1712283 0.10272936 -0.042164072 -0.11579449 -0.096851416 0.14296433 0.053091515 0.1028594
-0.01499048 -0.085490145 -0.15955624 -0.10766301 -0.07326555 0.107018456 0.0064516044 -0.15667984
0.07694702 0.1621388 0.0062297154 -0.05543199 0.09553977 -0.10109574 -0.15256144 -0.020281184
-0.013239665 0.12884595 0.053623017 -0.15279326 0.11254791 0.10879517 0.14752257 0.05584581
0.15318388 -0.12273502 0.109382994 -0.04435228 0.064747356 -0.07638024 -0.00038902365 -0.13722058
-0.0666084 0.1366375 -0.01562534 0.0315754 -0.088280365 -0.11528464 -0.14063661 -0.018958
-0.1246243 0.15989487 0.031583093 0.027920745 -0.08113599 0.111496635 0.031116555 -0.061270352
0.03286937 -0.15658441 0.07266628 -0.14615716 0.04398889 -0.015878603 0.12910938 -0.043993622
0.12360382 0.15265739 0.12184575 0.12654607 0.09526853 -0.056973673 0.018771011 0.105833106
0.12800372 -0.039975226 -0.15420906 0.019951979 0.07751969 -0.1501214 -0.18692195 0.19099595
-0.039010543 -0.14348611 0.05838914 -0.13536519 0.08669287 -0.12837267 -0.023848215 0.15281981
-0.035044156 0.013879871 0.124966584 -0.0561734 -0.012980134 -0.14581676 -0.054646045 -0.03750466
-0.15574208 0.022637734 -0.1272928 -0.15011941 -0.06765059 -0.078029774 -0.08493501 -0.084674165
-0.10653772 0.009962918 0.120219976 0.10050706 -0.0593415 -0.09865094 0.117363155 0.15730609
-0.04376414 0.15886945 0.1444115 0.031739827 0.048161794 0.14076619 0.024884092 -0.05499498
-0.06444628 -0.055549115 -0.15083283 -0.14586212 -0.013788803 -0.00038585323 0.07131489 -0.09694285
-0.0748245 -0.0013487184 0.014742551 0.12267535 0.014713975 -0.029937726 0.15816239 -0.112442374
0.100320876 -0.099824645 0.16040173 -0.08098614 0.07626041 0.15663305 0.08780344 0.13877673
-0.12382322 0.100419685 -0.01754981 0.0155550605 -0.068634056 -0.1430987 -0.14820497 -0.08313257
-0.118003435 0.0042304555 -0.034726262 -0.012778871 0.04143122 -0.05450026 0.121591605 0.034685444
0.060572527 0.053262163 -0.11753282 0.012864642 -0.16967013 -0.12694304 0.06550963 0.005681593
0.10008227 0.1474579 -0.052696977 0.09876522 0.024168663 0.04722381 0.13838321 -0.083007626
0.0032794029 0.007452725 -0.040730834 0.0213547 0.12795794 0.08015618 0.009133512 -0.033263285
0.04190703 -0.022783957 0.08452021 0.120464526 0.0988291 -0.07963541 -0.060264077 0.0551799
0.12601955 -0.12642689 -0.11134135 -0.092372976 -0.10389173 0.14676967 0.12204788 0.041420497
0.12451712 -0.054979607 -0.14594814 -0.13787861 0.12248909 0.11048719 0.057583522 0.0024205735
0.1368477 0.07251817 -0.04551949 -0.08670667 -0.09743882 -0.018427942 -0.07825904 0.10682931
0.0046238117 0.04958038 0.0065403706 0.11953417 0.13133976 -0.06521953 -0.081966825 0.09945516
-0.05316522 -0.020154186 0.021660257 -0.10449765 0.1345525 0.12343119 -0.042802993 -0.046376638
-0.15986462 0.14918831 -0.10544274 0.1607997 -0.026537394 -0.09194933 0.1322972 0.08557197
-0.01679208 0.01919711 -0.14169513 0.06966854 -0.09450071 0.13313042 -0.05655018 0.04662737
0.125749 -0.088721156 0.13833845 -0.026320312 0.016908247 -0.16091034 0.038669996 -0.1610047

project_layer.bias f4 [128]
00000000: 4c5f 9cbd 5c81 98bd 0951 f9bd a2e5 263c
00000010: c657 e2bd ee93 913d 72e5 0cbe ccbf e63c
00000020: d5e6 fbbd da1c b43c b309 1ebe 8839 ce3d
00000030: 1201 a53d 405a a7bd 258c 64bd ebd3 d93d
00000040: 4865 0e3e ac90 11be e55a e7bd 1579 1c3e
00000050: 23d1 243d 377e 0f3d ccbe b1bd c462 b43d
00000060: 360a bbbd ac34 ae3d daf9 d5bd 9d02 063e
00000070: f983 cfbd f557 fe3d 7c51 493d 327c bd3d
00000080: bad9 bebc 8617 02be 04d0 b1bd 5361 1b3e
00000090: 12fd d3bc 9879 96bd 7dd3 c8bd 5fc1 fc3d
000000a0: 7881 b8bd 326b 373d 4469 fd3d 3691 23be
000000b0: 079f 09bd 293d 3c3d 713a 493c 2212 6abd
000000c0: 56a0 673c 3505 013e 6155 41bd 9f68 123e
000000d0: 82fd 973d 3b20 043e 89a2 483d e647 243e
000000e0: f9ed 15bd c733 03bd 1e42 ab3d 5921 fc3d
000000f0: 4ae1 c6bd 0e42 a73d 2786 183e f326 033e
00000100: 32b4 fdbd 54eb 38bd 6f9f 7cbd d9ca c4bd
00000110: 6c44 bf3d 9336 db3b 56cb e43d 4f29 4a3c
00000120: 297f 543b b5f6 b4bd e2a4 15be 47d0 ec3d
00000130: aaa5 923d 9e57 1b3e d3df dcbd fc37 24be
00000140: 9d6a 3ebd 2aa6 80bc 5476 99bd 63bb 2ebd
00000150: a638 c83c 2ef9 553d 73f1 12bd baf1 f03d
00000160: a749 91bd 7757 88bd 6d7e 023e 8ce8 99bd
00000170: d64c b63d 2cdb 88bd 12d9 0f3e 9221 1c3e
00000180: 2891 ff3d 7413 13be 5b2b 9cbd 0644 063e
00000190: bf80 753d 204b 3abd b1e1 cfbd aad5 c13d
000001a0: 17a5 7bbc 8e45 10bd b762 e3bc 809f 20be
000001b0: 022d a83c 1f11 aa3c ffd0 06bc 98df a23c
000001c0: 4b8c debd 0da9 1f3e 3fb2 19bc 068d 163e
000001d0: 8b7d a8bd 2d15 ffba 40fa 0fbe b449 ffbd
000001e0: 5ed5 7fbc 4202 ae3d c002 7ebd ecb6 ca3d
000001f0: dae2 b63d 0e25 193e 73dc 08be e6ea cdbc
-0.07635364 -0.07446548 -0.12173659 0.010186585 -0.11051898 0.071082935 -0.13759401 0.028167628
-0.12299887 0.021986414 -0.15433387 0.10069567 0.08056845 -0.08171511 -0.055797715 0.10636123
0.13905823 -0.14215344 -0.11296634 0.15280564 0.04023851 0.035032477 -0.0867897 0.088079005
-0.09132807 0.0850614 -0.10448046 0.13086934 -0.10132594 0.1241912 0.049149975 0.09252204
-0.02329718 -0.12704286 -0.08682254 0.15173845 -0.02587751 -0.07347411 -0.09805963 0.1234157
-0.09009069 0.044779964 0.123735934 -0.15973362 -0.033598926 0.045956764 0.012282 -0.0571462
0.014137348 0.12599643 -0.047200564 0.14297722 0.074214 0.1290292 0.04898313 0.16043052
-0.0366039 -0.0320318 0.0836222 0.12311048 -0.09710939 0.08166896 0.14894925 0.12807827
-0.12387885 -0.0451463 -0.061675485 -0.096090026 0.09339222 0.0066898554 0.11171596 0.01233895
0.0032424426 -0.08836118 -0.14613679 0.11563163 0.07160504 0.15170142 -0.107848786 -0.16036981
-0.046488393 -0.015704233 -0.074932724 -0.042659175 0.024441075 0.05223959 -0.035874795 0.11764856
-0.07094126 -0.066573076 0.1274354 -0.07515058 0.08901374 -0.06682429 0.1404765 0.15247181
0.12478858 -0.1436289 -0.07625457 0.13111886 0.059937235 -0.0454818 -0.10150469 0.09464581
-0.015359185 -0.035222583 -0.027757032 -0.15685844 0.020529274 0.020760117 -0.0082285395 0.019882008
-0.108666025 0.15591832 -0.009380876 0.14702234 -0.082270704 -0.0019461267 -0.14060307 -0.1246523
-0.015614836 0.084965244 -0.06201434 0.09898171 0.08929987 0.14955541 -0.13365345 -0.025136422

rnn_layer.weight_ih_l0 f4 [512, 128]
00000000: 1922 363d 06d8 9bbd 3bc1 933c 29d0 5339
00000010: b199 fa3c 45a8 bf3d 63d3 773b 2acb cfbc
00000020: 5bcc af3c b0ab 8b3d a227 76bd 1985 4c3d
00000030: 9e41 36bd 1043 66bd 5afa 903d 3a79 aaba
00000040: 2a28 c6bd c1fa 763d 6af3 493c 1505 67bb
00000050: c5b6 03bc 5c67 52bd 4ae8 753c 7404 9ebc
00000060: 0b9e 8d3c fe2c 82bd 705d 253b 4089 4c3d
00000070: e709 edbc 45ca 633d 5cb4 bcbd 71f3 4abd
00000080: 20b9 b53d 774e 8fbc a3eb 26bd 06dc 9c3d
00000090: b9a6 473d 726c ccbc b456 493d aa0f 95bc
000000a0: 3414 173d edd1 37bd 6b48 3f3b ed6e 94bd
000000b0: 7a09 a43d d1b6 253d c0f7 80bd 31b0 b53c
000000c0: db90 8fbd f647 4fbd 8466 2bbd 032c abbd
000000d0: f3ba ac3d 0983 43bd 524a 81bd 6c3a 96bd
000000e0: 66ab b93d ffe1 75bc dbd6 62bd 9f78 e23c
000000f0: a256 c9bd 3c91 b53d 2263 66bd d7c7 c53d
00000100: b996 09bd 302a e9bc 62cb a63d e201 9bbc
00000110: a94c cabc 039a 8abd a0db 2f3a bc68 02bc
00000120: a1b2 a4bd e0a6 673d ee08 b53a 67b2 7d3d
00000130: 1603 88bc 1b92 11bb f2b6 7c3d f736 61bd
00000140: fbe1 8a3c 9d9a b2bc b98d 053d d027 c7bb
00000150: feee 33bc 527f 07bd 53aa 0f3d 0bbe 3ebc
00000160: 4f82 1bbc b1fb ac3d ab2a bebd 9ccf 42bd
00000170: 2a0f 43bd 871c b73d c888 b53c 22bb 0b3d
00000180: c495 96bc dc65 c0bc cee8 563c 6aba 9e3d
00000190: a795 b9bb f31c bd3d 9e3c 1fbc 9838 8cbd
000001a0: ad8c 91bd 4add 673c 18f4 5e3d 4e36 acbc
000001b0: bd7b e9ba 0b95 383d 9937 b23c 0ee7 053c
000001c0: 9ee1 de3c fbfb 8b3c 6ccd b83d b596 a43d
000001d0: 27cc 933c cf70 823d c945 0cbd 23e8 8bbc
000001e0: 70cc a6bd 1278 30bd 123e 553b 9ac4 0f3d
000001f0: e188 97bd 6de5 f33c 0168 a2bd b16c c43d
00000200: b283 3e3c 4dd4 a93c 36e7 03bb a433 343d
00000210: 791f cf3b 199d dc3c 4c8c 8fbd 3e89 343d
00000220: d0cb 823d f9b5 fe3b 286a 2dbd 5e4e 60bc
00000230: 0809 b83d 766d 903d ebd9 8c3d c0df 823d
00000240: b082 083d 3763 613c efaf 943d d896 8dbd
00000250: aa54 cd3c dd01 b43d a970 71bb 7bcc ad3d
00000260: d942 ce3d 8f76 aebd b4a6 933d a5f5 9ebd
00000270: 5efa d8bb 9b5d a23d d007 2e3c fda9 40bd
00000280: 209e 30bd c9d7 fb3c e182 b03c 24e0 073c
00000290: a925 2dbd 5dae 90bd 2aba 0fbd 01e1 913d
000002a0: 6549 7abc e1d4 0fbd 79d2 343b e855 7cbd
000002b0: c382 ee3c 6e27 f2bb ca94 583d 3938 c4bd
000002c0: 3aea 00bd bf32 d9bc e512 9ebc ea83 633d
000002d0: 7f78 9f3d 6121 60bd 2752 94bd c03c 77bd
000002e0: a1f2 51bd 5a17 acbd 9422 423d fa7a 0dbd
000002f0: a4d3 a53d 8e3f e23c a09a 243d 7ebc acbd
00000300: 44a6 3abd 4d48 6ebd fb37 803d ddc8 8fbd
00000310: f57f 87bd 3e32 85bd 986d 263c 4609 a9bc
00000320: 89a3 d03d 56cf 743b e3a1 513c e475 753c
00000330: 0487 1cbd 6a60 eb3c c048 87bd e59a adbc
00000340: 07ec 8ebc bdde f5bc 5b59 af3d ee45 8d3c
00000350: 7b40 9fbd f261 93bc e5dd f2bb c533 31bb
00000360: a349 263d 1b21 463c 79de 4bbc cdca 5e3c
00000370: b784 3c3d 5518 9bbd fd68 793c d2ce 4dbd
00000380: 28a9 873d 73e1 9e3d 82a0 f53b 5489 583d
00000390: 01bf 41bc 8613 013d 1dce 1c3d d917 e238
000003a0: 2c4f b5bd 849e 8ebd 1d11 8ebd c4dc 87bd
000003b0: cb89 5ebd 3df0 52bd 5636 c53c 0976 36bd
000003c0: ffef bc3d ecfe bebb ba8b a6bc 23ca 07bc
000003d0: a13a 903d 0303 cc3d f2a3 75bc 9ca8 913a
000003e0: b0ae 153d cb49 c23d f0bb 31ba bc1b 84bc
000003f0: 8632 66bd 2fe7 03bd e514 4fbd 3fb4 afbd
0.04446611 -0.076095626 0.018036475 0.00020200074 0.030590864 0.09358267 0.0037815205 -0.02536543
0.021459749 0.06819856 -0.06009639 0.04993162 -0.04449617 -0.0562163 0.07079001 -0.0013006099
-0.096756294 0.06029773 0.012326101 -0.0035250832 -0.008039181 -0.051368102 0.015008995 -0.019289233
0.017287275 -0.06356238 0.0025232695 0.04993558 -0.028935386 0.05561282 -0.09214088 -0.04954857
0.088732004 -0.01749347 -0.040752064 0.07659154 0.048742983 -0.024954055 0.049154952 -0.018195946
0.0368845 -0.044877935 0.0029187452 -0.0724772 0.0800962 0.04045755 -0.062972546 0.022178741
-0.07010051 -0.050605737 -0.041845813 -0.08358004 0.08434095 -0.047732387 -0.063130036 -0.07335362
0.09065895 -0.015007495 -0.055380683 0.027645407 -0.09830977 0.08865592 -0.056246884 0.09657257
-0.033591006 -0.0284625 0.08144261 -0.018921796 -0.024694758 -0.06767657 0.0006708447 -0.007959541
-0.08041883 0.05655563 0.0013811865 0.061937716 -0.016603034 -0.002221233 0.061697908 -0.05498406
0.016953459 -0.021802241 0.03260586 -0.006077744 -0.010982273 -0.033080406 0.035074543 -0.011641989
-0.009491517 0.08446444 -0.09285482 -0.047561273 -0.047621883 0.08940988 0.022159949 0.03411401
-0.01838196 -0.02348607 0.013117028 0.077503994 -0.005663592 0.09234037 -0.009719042 -0.06846732
-0.0710691 0.0141518805 0.054432005 -0.021021988 -0.0017813366 0.045064013 0.021755027 0.0081727635
0.027207192 0.017087927 0.09023556 0.080365576 0.018041683 0.06369173 -0.03424624 -0.017078465
-0.08144462 -0.043083258 0.0032538217 0.035099603 -0.073991545 0.029772485 -0.079299934 0.09591044
0.011628078 0.020731116 -0.0020126826 0.04399456 0.0063208905 0.026930379 -0.070091814 0.044076197
0.063865304 0.0077731577 -0.042337567 -0.013690559 0.089860976 0.07052128 0.06877502 0.06390333
0.03332776 0.013756565 0.07260119 -0.06913537 0.025064785 0.08789418 -0.0036840832 0.08486267
0.10071344 -0.08518707 0.072095305 -0.07761697 -0.006621643 0.0792801 0.01062198 -0.047037113
-0.04311955 0.030742543 0.021546783 0.008293185 -0.042272244 -0.07064507 -0.03508965 0.07122994
-0.015276288 -0.035115127 0.0027591272 -0.061605364 0.029115086 -0.0073899543 0.05287627 -0.09581036
-0.031473376 -0.026513455 -0.019296119 0.055545725 0.07786655 -0.054719333 -0.07242232 -0.06036067
-0.05125678 -0.084028915 0.047396258 -0.034541108 0.08097008 0.027618196 0.040186524 -0.084343895
-0.04556872 -0.05817442 0.062606774 -0.070207335 -0.06616203 -0.065037236 0.010157965 -0.020634305
0.10187442 0.0037355027 0.012794944 0.014981721 -0.0382147 0.028732497 -0.06605673 -0.021192024
-0.017446531 -0.030013436 0.08561965 0.01724526 -0.077759705 -0.01799104 -0.007411706 -0.0027038914
0.04059757 0.012092854 -0.012443178 0.013598156 0.046025004 -0.07573 0.015222785 -0.050246067
0.06624061 0.07757845 0.0074959407 0.05286534 -0.011825324 0.03151276 0.038282502 0.00010780962
-0.088529915 -0.06963828 -0.06936858 -0.066339046 -0.05433063 -0.05149864 0.024073761 -0.04454616
0.09225463 -0.005828729 -0.020330299 -0.008287939 0.070424326 0.09961512 -0.014992701 0.0011112872
0.036543548 0.09486731 -0.0006780019 -0.016126506 -0.056200527 -0.032202896 -0.050557036 -0.08579301

rnn_layer.weight_hh_l0 f4 [512, 128]
00000000: af9e 8f3c e5b6 2dbd 879e 7a3d b093 9abd
00000010: a419 883c 4afc 30bc 02c3 343c 65fc f6bc
00000020: 97dd c03c d075 85bc 05ed 763c 64bb 9bbd
00000030: 0bea afbc 36b8 9fbd 7b9b 07bd 6c9d d9bb
00000040: 59e7 bebc 4307 2abd 2673 c93c 9e17 dc3b
00000050: 5086 4bbc a6e1 2abd 84f2 82ba b2f2 693c
00000060: ed52 85bc c0b9 8bbc 1714 20bd 882c 513c
00000070: 9c18 10bc 397d 8e3c bb61 febc a976 a33c
00000080: eedf 95ba 683c 903b 8503 4abc 6169 27bc
00000090: fd40 ccbc fb3c bdbd 9936 3c3d baf9 08bd
000000a0: 1d3b 783d 7502 f8bc db70 c5bd 800e f3bc
000000b0: aa0a 723d febb c9bd 2ddd 943c c2b3 54ba
000000c0: 0142 fdba dc8b f5bc 7d5b a7bb a4a9 c43c
000000d0: 664d aabc cbed c5bc b36d 063d cee9 863d
000000e0: 19ca 3c3d 86d5 d7bc 91d1 4a3d 5997 fb3b
000000f0: 50c7 87bc 63f7 f6bc 8162 5cbd 01f3 abbd
00000100: aafe b3bd de97 a43c d332 043c ae59 943b
00000110: 99b4 4ebc 89ff b83c 06b2 e4bb 7851 9dbc
00000120: fc66 093d bd98 5d3c 220f 593c 2c60 11bd
00000130: 4624 32bc 3736 9dbd e78c 5a3c 1a95 673d
00000140: ee2c 693d bcba b73c dc5a f2b9 3e2e 97bb
00000150: 97ee abbd a771 12bb 282c a3ba f7ae 033c
00000160: 417c 69bc fbcc a13c afc7 71bd f1de 2fbc
00000170: 82e3 23bd e43e 9a3d f590 ac3c 422f febc
00000180: 8997 5abc 6198 a3bc 5ef0 2abd 5723 6fbd
00000190: efa4 ef3c 46f7 8abd ca1f 97bd 5732 0cbc
000001a0: 227d a33c 629d 4cbd 2383 61bd 282c 63bd
000001b0: 06a6 7bbd e2e0 713d 12c5 843b 50c2 1fbd
000001c0: 4d77 cd3d b762 bb3c 559e e1bd ee5f 023d
000001d0: 6b1b 69bc 5f01 563c 9b26 edbd 4b3f 9f3b
000001e0: c4b0 24bc 92f0 3d3d 222d 2b3d 790c f038
000001f0: eb8c a1bc ac89 33bd 97c3 843c 122a 193d
00000200: cde8 b8bb ccf0 d7bb cc88 bfbb 1289 ba3c
00000210: bfb0 89ba da2e b8bd f123 84bc 3976 813d
00000220: eead ba3c 0360 3e3c a403 17bc e04c e23c
00000230: fbde 953c 4e8d 983d 1011 43bc abc4 adbd
00000240: 9a34 353b b781 d83c 6f6a 15bd b1d2 c03c
00000250: bc9a 593c 2c6f c83d 7068 6abc 404f fd3c
00000260: faf6 df3c 7862 ccbc ebb6 66bd 7191 fd3c
00000270: e6d9 2bbc 11c6 bb3d a7d2 d0bd e5e9 e9bc
00000280: 1bed 6dbd 3c0e 5c3d 5507 4f3c 5782 cfbc
00000290: 9ea5 7c3d 9f42 2f3c 5728 f1bd 93e1 9e3b
000002a0: 3e0a 07bc 0b1d 35bd 5e5c bd3d 05a4 633d
000002b0: 453d 32bd 44de 39bd 6347 eabb 582b 423d
000002c0: 1ffc 02bd c29b 993d f23a 55bc e4e7 ee38
000002d0: 4b81 e2bc 93b0 b8bc d622 fd3c 4e14 bdbd
000002e0: a9bb 2d3b c17d 80bc a090 bc3c b14f 42bc
000002f0: 1b75 3bbc 83fe 3c3d 7a25 21bd 7db2 9dbc
00000300: a37a dcbd 9b6e 253c 779b 5ebd 202a c039
00000310: 1ea2 83bd 610c 6abc caba babb ad15 8e3d
00000320: c9d6 5c3d 2036 883d e9eb 053d 4352 103d
00000330: 7dca 083d 8818 563d 2627 9b3c 4f82 c8bc
00000340: b094 b6bc 425d 02bd 86db af3b eebc 993b
00000350: 6e36 7fbd ad9b 9fb9 25a1 39bc 9087 3f3d
00000360: 42a1 2a3d 8d99 5dbd 3c5f d23c 208a a1bc
00000370: 14ae 623c e39d 09bd 8be5 36bc f274 1e3c
00000380: ebee bb3b 9157 c23d 948d 6fbd 60b5 ffbc
00000390: afec a53b a423 a2bb 28e3 c0bc a4eb 89b7
000003a0: cac1 83bd 19cc 893a 12ac 6cbd 11d6 18bd
000003b0: d14e 913c 36ad 9d3d 9828 023d 5d62 343d
000003c0: fab1 e7bc 60cd 953b bdee 1e3d bd67 993c
000003d0: 4bb8 c53b 3d5f aabc a0ed bdbc 0870 623d
000003e0: b165 bdbd 5405 71bc 0418 6bbd c9da 803b
000003f0: 11ad b03d 0433 8fbc 09a7 42bd 1c46 0c3d
0.01753172 -0.04241075 0.06118634 -0.075477004 0.016613789 -0.010802338 0.011032822 -0.030149648
0.023543162 -0.016291529 0.015071158 -0.07604101 -0.021473905 -0.07798807 -0.033107262 -0.0066410806
-0.023303675 -0.04151083 0.02459104 0.0067166826 -0.012422159 -0.0417191 -0.0009990488 0.0142790545
-0.016274894 -0.017056346 -0.03908166 0.012766965 -0.00879493 0.017393695 -0.03105246 0.019954043
-0.0011434534 0.0044017322 -0.012329941 -0.010217995 -0.024933333 -0.09240147 0.045950506 -0.033441283
0.06060325 -0.03027461 -0.09640666 -0.02967 0.0590922 -0.0985031 0.018171871 -0.0008113944
-0.0019322039 -0.029973917 -0.005107342 0.024006672 -0.02078886 -0.02416124 0.03281946 0.065875635
0.046091173 -0.026346933 0.049516264 0.007677954 -0.016574532 -0.03014726 -0.05380488 -0.08395959
-0.08788808 0.020091947 0.008068758 0.004527292 -0.0126163 0.022582786 -0.00697923 -0.019203886
0.03354548 0.013525185 0.013248237 -0.035492107 -0.010872906 -0.07676356 0.013339258 0.05653868
0.056927614 0.02242791 -0.00046225532 -0.004613667 -0.08395117 -0.0022345574 -0.0012449073 0.00803732
-0.014250816 0.019751063 -0.059028324 -0.010734306 -0.04001189 0.07531527 0.021065215 -0.031028394
-0.013341793 -0.01997012 -0.04173314 -0.058383312 0.029253451 -0.06785445 -0.0737911 -0.008556924
0.019957129 -0.04995478 -0.055056702 -0.055462033 -0.06143763 0.059052356 0.004051813 -0.03900367
0.100325204 0.02287422 -0.110165276 0.031829767 -0.014227728 0.01306185 -0.11579629 0.00485984
-0.01005191 0.046372004 0.04179109 0.00011446415 -0.019720515 -0.043832466 0.016206546 0.037393637
-0.0056429864 -0.0065899845 -0.005845165 0.022770438 -0.0010504945 -0.08993311 -0.01613042 0.06321377
0.022788014 0.011619571 -0.009217177 0.027624547 0.018294802 0.07448827 -0.0119059235 -0.08484777
0.0027649761 0.02642904 -0.036478456 0.023537965 0.01328152 0.09786829 -0.014307126 0.030921578
0.027339447 -0.024949297 -0.056326788 0.03095314 -0.010488963 0.091686375 -0.10196429 -0.028553912
-0.05808745 0.053724512 0.012636025 -0.025330706 0.061681382 0.010697036 -0.11775272 0.004848668
-0.008242188 -0.04421715 0.09246133 0.055576343 -0.043515462 -0.045377985 -0.0071496232 0.047404617
-0.031978723 0.075004116 -0.013014542 0.00011391917 -0.027649542 -0.022545135 0.0309004 -0.092323884
0.002650956 -0.015684964 0.023018181 -0.01185982 -0.011441494 0.04614116 -0.03934238 -0.019250149
-0.107655786 0.010097171 -0.05434748 0.0003665248 -0.06427406 -0.014285178 -0.0056985365 0.06937728
0.053915773 0.066509485 0.032695685 0.0352347 0.033396233 0.05226949 0.018939566 -0.024476198
-0.022287697 -0.03182722 0.0053667454 0.0046917116 -0.062307768 -0.0003044283 -0.011329924 0.04676014
0.041657694 -0.054101516 0.025680177 -0.019719183 0.013835449 -0.033597838 -0.011163126 0.009671437
0.0057352684 0.09489358 -0.05848463 -0.031214416 0.0050636153 -0.0049480963 -0.023545817 -1.6441401e-05
-0.06433447 0.0010513096 -0.057781287 -0.037313525 0.017737778 0.07699053 0.031776994 0.04403912
-0.028283108 0.0045716017 0.038801897 0.018726224 0.0060339323 -0.020797366 -0.023184597 0.055282623
-0.09247912 -0.014710743 -0.05739595 0.003932331 0.0862676 -0.01748038 -0.04752258 0.03424655

rnn_layer.bias_ih_l0 f4 [512]
00000000: a6fc 5e3a ef7b 993a 01f7 41ba 078a 4538
00000010: 277c 37b8 0cbb b039 fecf 33b9 dda3 a637
00000020: 8d7c b13a eefc c03a 8426 8f3a a59f 2e3a
00000030: 5ad8 1d3b f954 093a 0ad7 0b39 fa86 a43a
00000040: e7ca 773a 5a16 c13a 1792 d63a a74b 4c3a
00000050: b304 8a3a 6bba e139 0aa4 513a cb63 9b3a
00000060: 0dc7 6339 6fb8 423a 425d 5b3b 8c66 a03a
00000070: a0f8 133a 21ab 023b cb2a 8d3a aa47 abb8
00000080: 6d72 8d3a f215 dc38 e1cc 6c39 8569 c53a
00000090: be2a 2a3a 7186 0839 449a 9739 f9c1 16ba
000000a0: 988a 3c3a 0be1 b03a a26b d739 be56 4b3a
000000b0: 84d5 213a 4b42 e43a 4253 c439 f132 573a
000000c0: 3428 28b9 2345 e539 2820 0e3a 8277 43b9
000000d0: 17ae 3eb9 caca 1a39 0139 453b 3794 ce3a
000000e0: 2541 1439 2d75 f93a cb3a 183a 9cce 403a
000000f0: 087c 9939 bb60 903a d99e 213a 338b 0e39
00000100: 7930 8a39 cdc8 3dba ac6e a63a 99a8 d23a
00000110: 3c75 153a 23ec f63a 02c1 77b9 8c7b 98b9
00000120: b033 88ba 1c5f 923a 23f3 ee39 be8e 743a
00000130: 02cb 053b 656a d2b8 94a9 ed39 9ef2 6a3a
00000140: 251f ac39 b2be 243a 09e0 7e39 d0c4 ef39
00000150: f0d4 ac3a df12 873a f15e bc39 55db e2b9
00000160: fadd 123a 8787 7a3a 0c5a f538 45c3 9b3a
00000170: 3e52 313b 5685 643a 3d87 8539 8263 bab9
00000180: 3acf e039 c01a 613a b304 6539 8d6f 8c3a
00000190: 1dad fe39 0d80 423b a633 d43a f2a9 6a3a
000001a0: 7200 c3b9 09e1 d538 227e 01b9 deb3 b739
000001b0: cc54 f93a 7fa1 a33a 41a6 36b9 1d13 5e39
000001c0: 06be 9c39 2d3f 8839 10af 0e3a 005d c43a
000001d0: 14fe dc38 9fc9 6e3a 7c8f 2d3a 7fcb cc3a
000001e0: e0c0 8f3a 61c7 2039 5dd0 143a 82b9 2c3a
000001f0: 9079 3139 7e1d 6cb9 e28c 6e3a 298d 373a
00000200: 954f 1339 82a3 173b e4b5 cc39 aac2 4738
00000210: 3316 6a38 bcef d33a 1398 9339 456a 89b8
00000220: 9033 053a ab55 d83a 24b9 a33a 13f3 273a
00000230: 5db9 8d3b 703f 163a ce6b 9b39 bab9 b13a
00000240: b0ac 333b a364 483a 09b4 d23a cc71 d93a
00000250: 0f9c 903a cc6a a739 85be 103a e054 df3a
00000260: 409d 8d3a df3e cf3a ad6b 383b 73b7 d03a
00000270: 9d25 6139 298e c33a 0608 da3a 0b0a b93a
00000280: 967a f43a a0c9 373a f307 2b3a 9b55 9e3a
00000290: 7baa e039 7baf 52b9 0946 87b9 055f bd38
000002a0: 3d3c c43a 556e df3a daa7 a33a 8c3c abb8
000002b0: 2c7c ea3a c6fc 303a e267 173b 7348 c339
000002c0: b292 373a c054 4239 7702 963a 6672 e13a
000002d0: ea26 c13a 2506 b83a a655 253b e065 dc3a
000002e0: b2a4 bc3a dbc4 f63a 127e 473a 53b4 db3a
000002f0: 5666 dd3a ca22 8e3a 150e 883a f33f 5c3a
00000300: 38bc c73a 1b2b 4e3a a125 b43a 753f 473b
00000310: a84e cd3a 348e c73a 3238 5f3a f771 af39
00000320: 24ab 6338 996a 5e3a 03e9 bc3a 9568 bb3a
00000330: 6174 933a fab9 d338 4075 2b3a d8fa 273a
00000340: eea5 083b edc8 323a d2fb 383a a71b 0739
00000350: f033 a43a 0039 a83a a11c 8339 f4a1 d039
00000360: 9a1f 6e3a 596d d33a b4de b239 5e12 073b
00000370: 0181 253b 27e3 c73a 1ed2 2b3b b07b ea39
00000380: bf19 283a 0170 1d3b 01ec c83a 8ddd 043b
00000390: c26c 273a c7e2 083b 3fe7 7d3a b878 b43a
000003a0: 59ec 9939 57cb ad3a 49c4 6a38 3dbc 993a
000003b0: 394e f03a 429b 483b d42c 613a 4aa2 d039
000003c0: 4644 2a3a e1b6 2c3a 1089 b83a d6ab 8739
000003d0: d991 833a b1ae bf39 8671 8e39 8da4 d93a
000003e0: 3126 0a3b b737 473a 8c31 673a 259b 9d3a
000003f0: 3b59 553a 824a 3b3a e084 f237 1a72 d43a
0.00085062755 0.0011709909 -0.0007399172 4.7097008e-05 -4.3746226e-05 0.00033708697 -0.00017148253 1.9865047e-05
0.0013541147 0.0014723816 0.0010921513 0.0006661362 0.0024085254 0.0005238797 0.00013336181 0.0012552433
0.0009452537 0.0014731393 0.0016370442 0.00077932555 0.0010529965 0.00043054236 0.0007997161 0.0011855302
0.00021722559 0.00074279954 0.0033472334 0.0012237593 0.0005644653 0.0019938427 0.00107702 -8.167264e-05
0.0010791548 0.00010494505 0.00022583037 0.0015061354 0.00064913544 0.00013020054 0.000289159 -0.000575095
0.0007192283 0.0013494802 0.00041088188 0.0007756761 0.0006173479 0.0017414776 0.00037446065 0.000820919
-0.00016036705 0.00043729795 0.0005421662 -0.0001864117 -0.00018184666 0.0001476213 0.0030093791 0.0015760724
0.00014138648 0.0019032113 0.00058071007 0.0007355006 0.00029274845 0.0011015156 0.0006165333 0.00013594031
0.00026357526 -0.00072396995 0.0012697778 0.0016071975 0.0005701368 0.0018838685 -0.00023627657 -0.0002908375
-0.0010391381 0.0011167261 0.00045576048 0.00093291316 0.0020415192 -0.00010033398 0.00045330508 0.00089625444
0.000328296 0.00062845193 0.00024306787 0.0004573227 0.0013186019 0.0010305307 0.0003592889 -0.00043269494
0.0005602535 0.00095569383 0.00011699283 0.0011883756 0.0027057077 0.00087173784 0.00025468497 -0.00035550824
0.00042879005 0.0008587055 0.00021840892 0.0010714397 0.00048575635 0.0029678375 0.0016189709 0.00089517154
-0.0003719363 0.000101985475 -0.00012349387 0.00035038491 0.0019022464 0.0012484043 -0.00017418807 0.0002117869
0.00029896217 0.0002598701 0.00054429565 0.001498133 0.00010537743 0.00091090234 0.0006620807 0.0015624611
0.0010967515 0.00015333063 0.00056768005 0.0006588922 0.00016925321 -0.000225177 0.00090999727 0.00070019305
0.00014048659 0.002313823 0.0003904543 4.7626592e-05 5.5810622e-05 0.0016169469 0.0002815133 -6.552463e-05
0.0005081231 0.0016505023 0.0012491089 0.00064067653 0.0043250755 0.0005731499 0.00029644225 0.0013559379
0.0027416162 0.00076443906 0.0016075383 0.00165897 0.0011032837 0.00031932292 0.00055215537 0.0017038845
0.001080431 0.0015811584 0.0028140352 0.0015923813 0.00021471684 0.0014919686 0.0016634471 0.0014117373
0.0018652256 0.00070109405 0.0006524317 0.0012079956 0.00042851627 -0.00020092532 -0.00025801387 9.029921e-05
0.0014971566 0.0017046431 0.0012485937 -8.165193e-05 0.0017889789 0.00067515334 0.002310269 0.00037247277
0.00070027553 0.00018532854 0.0011444826 0.0017200231 0.0014736329 0.0014039917 0.0025228052 0.0016815029
0.0014392345 0.0018826978 0.00076100335 0.0016762115 0.001689146 0.0010844108 0.0010380173 0.0008401863
0.0015238589 0.00078646996 0.0013744124 0.0030402814 0.00156637 0.0015224875 0.00085151487 0.00033463511
5.4280405e-05 0.0008484512 0.0014412705 0.0014298136 0.0011249894 0.00010095905 0.0006540604 0.0006407923
0.0020850855 0.00068201014 0.0007056567 0.00012884905 0.0012527686 0.001283437 0.00025007597 0.00039793516
0.00090836885 0.0016130611 0.00034116732 0.0020610313 0.0025253894 0.0015250192 0.002621777 0.00044724112
0.0006412528 0.0024023058 0.0015329124 0.0020273656 0.00063867506 0.0020887123 0.00096856424 0.0013768887
0.00029358527 0.0013259453 5.5972752e-05 0.0011729073 0.0018333859 0.003061012 0.0008589749 0.00039793766
0.0006495159 0.00065885304 0.0014078934 0.00025877234 0.0010037973 0.00036560514 0.00027168932 0.0016604826
0.0021079893 0.000759955 0.0008819334 0.0012024386 0.00081386016 0.00071445864 2.8910523e-05 0.0016208321

rnn_layer.bias_hh_l0 f4 [512]
00000000: a6fc 5e3a ef7b 993a 01f7 41ba 078a 4538
00000010: 277c 37b8 0cbb b039 fecf 33b9 dda3 a637
00000020: 8d7c b13a eefc c03a 8426 8f3a a59f 2e3a
00000030: 5ad8 1d3b f954 093a 0ad7 0b39 fa86 a43a
00000040: e7ca 773a 5a16 c13a 1792 d63a a74b 4c3a
00000050: b304 8a3a 6bba e139 0aa4 513a cb63 9b3a
00000060: 0dc7 6339 6fb8 423a 425d 5b3b 8c66 a03a
00000070: a0f8 133a 21ab 023b cb2a 8d3a aa47 abb8
00000080: 6d72 8d3a f215 dc38 e1cc 6c39 8569 c53a
00000090: be2a 2a3a 7186 0839 449a 9739 f9c1 16ba
000000a0: 988a 3c3a 0be1 b03a a26b d739 be56 4b3a
000000b0: 84d5 213a 4b42 e43a 4253 c439 f132 573a
000000c0: 3428 28b9 2345 e539 2820 0e3a 8277 43b9
000000d0: 17ae 3eb9 caca 1a39 0139 453b 3794 ce3a
000000e0: 2541 1439 2d75 f93a cb3a 183a 9cce 403a
000000f0: 087c 9939 bb60 903a d99e 213a 338b 0e39
00000100: 7930 8a39 cdc8 3dba ac6e a63a 99a8 d23a
00000110: 3c75 153a 23ec f63a 02c1 77b9 8c7b 98b9
00000120: b033 88ba 1c5f 923a 23f3 ee39 be8e 743a
00000130: 02cb 053b 656a d2b8 94a9 ed39 9ef2 6a3a
00000140: 251f ac39 b2be 243a 09e0 7e39 d0c4 ef39
00000150: f0d4 ac3a df12 873a f15e bc39 55db e2b9
00000160: fadd 123a 8787 7a3a 0c5a f538 45c3 9b3a
00000170: 3e52 313b 5685 643a 3d87 8539 8263 bab9
00000180: 3acf e039 c01a 613a b304 6539 8d6f 8c3a
00000190: 1dad fe39 0d80 423b a633 d43a f2a9 6a3a
000001a0: 7200 c3b9 09e1 d538 227e 01b9 deb3 b739
000001b0: cc54 f93a 7fa1 a33a 41a6 36b9 1d13 5e39
000001c0: 06be 9c39 2d3f 8839 10af 0e3a 005d c43a
000001d0: 14fe dc38 9fc9 6e3a 7c8f 2d3a 7fcb cc3a
000001e0: e0c0 8f3a 61c7 2039 5dd0 143a 82b9 2c3a
000001f0: 9079 3139 7e1d 6cb9 e28c 6e3a 298d 373a
00000200: 954f 1339 82a3 173b e4b5 cc39 aac2 4738
00000210: 3316 6a38 bcef d33a 1398 9339 456a 89b8
00000220: 9033 053a ab55 d83a 24b9 a33a 13f3 273a
00000230: 5db9 8d3b 703f 163a ce6b 9b39 bab9 b13a
00000240: b0ac 333b a364 483a 09b4 d23a cc71 d93a
00000250: 0f9c 903a cc6a a739 85be 103a e054 df3a
00000260: 409d 8d3a df3e cf3a ad6b 383b 73b7 d03a
00000270: 9d25 6139 298e c33a 0608 da3a 0b0a b93a
00000280: 967a f43a a0c9 373a f307 2b3a 9b55 9e3a
00000290: 7baa e039 7baf 52b9 0946 87b9 055f bd38
000002a0: 3d3c c43a 556e df3a daa7 a33a 8c3c abb8
000002b0: 2c7c ea3a c6fc 303a e267 173b 7348 c339
000002c0: b292 373a c054 4239 7702 963a 6672 e13a
000002d0: ea26 c13a 2506 b83a a655 253b e065 dc3a
000002e0: b2a4 bc3a dbc4 f63a 127e 473a 53b4 db3a
000002f0: 5666 dd3a ca22 8e3a 150e 883a f33f 5c3a
00000300: 38bc c73a 1b2b 4e3a a125 b43a 753f 473b
00000310: a84e cd3a 348e c73a 3238 5f3a f771 af39
00000320: 24ab 6338 996a 5e3a 03e9 bc3a 9568 bb3a
00000330: 6174 933a fab9 d338 4075 2b3a d8fa 273a
00000340: eea5 083b edc8 323a d2fb 383a a71b 0739
00000350: f033 a43a 0039 a83a a11c 8339 f4a1 d039
00000360: 9a1f 6e3a 596d d33a b4de b239 5e12 073b
00000370: 0181 253b 27e3 c73a 1ed2 2b3b b07b ea39
00000380: bf19 283a 0170 1d3b 01ec c83a 8ddd 043b
00000390: c26c 273a c7e2 083b 3fe7 7d3a b878 b43a
000003a0: 59ec 9939 57cb ad3a 49c4 6a38 3dbc 993a
000003b0: 394e f03a 429b 483b d42c 613a 4aa2 d039
000003c0: 4644 2a3a e1b6 2c3a 1089 b83a d6ab 8739
000003d0: d991 833a b1ae bf39 8671 8e39 8da4 d93a
000003e0: 3126 0a3b b737 473a 8c31 673a 259b 9d3a
000003f0: 3b59 553a 824a 3b3a e084 f237 1a72 d43a
0.00085062755 0.0011709909 -0.0007399172 4.7097008e-05 -4.3746226e-05 0.00033708697 -0.00017148253 1.9865047e-05
0.0013541147 0.0014723816 0.0010921513 0.0006661362 0.0024085254 0.0005238797 0.00013336181 0.0012552433
0.0009452537 0.0014731393 0.0016370442 0.00077932555 0.0010529965 0.00043054236 0.0007997161 0.0011855302
0.00021722559 0.00074279954 0.0033472334 0.0012237593 0.0005644653 0.0019938427 0.00107702 -8.167264e-05
0.0010791548 0.00010494505 0.00022583037 0.0015061354 0.00064913544 0.00013020054 0.000289159 -0.000575095
0.0007192283 0.0013494802 0.00041088188 0.0007756761 0.0006173479 0.0017414776 0.00037446065 0.000820919
-0.00016036705 0.00043729795 0.0005421662 -0.0001864117 -0.00018184666 0.0001476213 0.0030093791 0.0015760724
0.00014138648 0.0019032113 0.00058071007 0.0007355006 0.00029274845 0.0011015156 0.0006165333 0.00013594031
0.00026357526 -0.00072396995 0.0012697778 0.0016071975 0.0005701368 0.0018838685 -0.00023627657 -0.0002908375
-0.0010391381 0.0011167261 0.00045576048 0.00093291316 0.0020415192 -0.00010033398 0.00045330508 0.00089625444
0.000328296 0.00062845193 0.00024306787 0.0004573227 0.0013186019 0.0010305307 0.0003592889 -0.00043269494
0.0005602535 0.00095569383 0.00011699283 0.0011883756 0.0027057077 0.00087173784 0.00025468497 -0.00035550824
0.00042879005 0.0008587055 0.00021840892 0.0010714397 0.00048575635 0.0029678375 0.0016189709 0.00089517154
-0.0003719363 0.000101985475 -0.00012349387 0.00035038491 0.0019022464 0.0012484043 -0.00017418807 0.0002117869
0.00029896217 0.0002598701 0.00054429565 0.001498133 0.00010537743 0.00091090234 0.0006620807 0.0015624611
0.0010967515 0.00015333063 0.00056768005 0.0006588922 0.00016925321 -0.000225177 0.00090999727 0.00070019305
0.00014048659 0.002313823 0.0003904543 4.7626592e-05 5.5810622e-05 0.0016169469 0.0002815133 -6.552463e-05
0.0005081231 0.0016505023 0.0012491089 0.00064067653 0.0043250755 0.0005731499 0.00029644225 0.0013559379
0.0027416162 0.00076443906 0.0016075383 0.00165897 0.0011032837 0.00031932292 0.00055215537 0.0017038845
0.001080431 0.0015811584 0.0028140352 0.0015923813 0.00021471684 0.0014919686 0.0016634471 0.0014117373
0.0018652256 0.00070109405 0.0006524317 0.0012079956 0.00042851627 -0.00020092532 -0.00025801387 9.029921e-05
0.0014971566 0.0017046431 0.0012485937 -8.165193e-05 0.0017889789 0.00067515334 0.002310269 0.00037247277
0.00070027553 0.00018532854 0.0011444826 0.0017200231 0.0014736329 0.0014039917 0.0025228052 0.0016815029
0.0014392345 0.0018826978 0.00076100335 0.0016762115 0.001689146 0.0010844108 0.0010380173 0.0008401863
0.0015238589 0.00078646996 0.0013744124 0.0030402814 0.00156637 0.0015224875 0.00085151487 0.00033463511
5.4280405e-05 0.0008484512 0.0014412705 0.0014298136 0.0011249894 0.00010095905 0.0006540604 0.0006407923
0.0020850855 0.00068201014 0.0007056567 0.00012884905 0.0012527686 0.001283437 0.00025007597 0.00039793516
0.00090836885 0.0016130611 0.00034116732 0.0020610313 0.0025253894 0.0015250192 0.002621777 0.00044724112
0.0006412528 0.0024023058 0.0015329124 0.0020273656 0.00063867506 0.0020887123 0.00096856424 0.0013768887
0.00029358527 0.0013259453 5.5972752e-05 0.0011729073 0.0018333859 0.003061012 0.0008589749 0.00039793766
0.0006495159 0.00065885304 0.0014078934 0.00025877234 0.0010037973 0.00036560514 0.00027168932 0.0016604826
0.0021079893 0.000759955 0.0008819334 0.0012024386 0.00081386016 0.00071445864 2.8910523e-05 0.0016208321

classifier.weight f4 [15, 128]
00000000: f45d b5bc f4ac 26be 456f 1b3e 25b2 9cbd
00000010: f2ec 8f3d 65b5 833d 4de1 c5bd c0b4 153d
00000020: e60e 0ebd 4ead 14be c1ed 2a3d 432a edbc
00000030: 443b 103e 2894 a2bd e741 d5bd 83a2 95bc
00000040: ebf1 143d 2888 a3bd 2936 533d 5c5c 07bc
00000050: cdf1 643d e4d1 43bd e12c a2bc 749e 033e
00000060: 0422 1dbd ef52 bc3d ba12 8f3d 4422 bd3d
00000070: 8a24 2e3b e1f6 2fbe dd8b cd3d bc97 e4bd
00000080: a901 6abd d507 b4bc e4fe 93bd 870b b43d
00000090: 47ad a7bd 221d 9b3c 2c7c 3ebd 84e1 093d
000000a0: 2fff 973d 8f19 ba3d d7e4 073d 898a 5abc
000000b0: a1d3 fabd c7f0 103e fa3d ca3c d89d 0cbe
000000c0: d89f 3a3b c134 d8bd 079e da3c adc5 193e
000000d0: e06c d43d 8504 53be 8d39 933d b55a 47bd
000000e0: d6e2 953b 23c3 91bd 634c 853d 9388 bbbd
000000f0: be1f bbbd fafd 77bd c51c 393d cbcc d53d
00000100: a680 c2bb 5f6e 6d3d 7d22 4bbe 867d a73d
00000110: 1e1d 823d ffb7 d3bd fa74 80bd c7b1 c33d
00000120: eeb5 8d3d 46e4 43bd 52b9 4abd c951 0ebe
00000130: f458 a73d fe28 ac3c 23e1 8bbd 822f 37bc
00000140: 2628 0b3d 424a 05be 1086 d53d 39bc c83b
00000150: 8c26 793c 9358 843d 0488 943c 8ac6 993d
00000160: e2cd 653c cbdc 4fbd 2194 fe3a 04e1 22bc
00000170: 8ddf e23c 2b71 28bd 5176 e0bd 3188 23be
00000180: 3fa2 82bd b147 a9bd 5825 efbc ad38 8c38
00000190: c62d 0abd 8498 693d d5c7 533d c416 ed3d
000001a0: 8fcc f73d d8a1 953d fcb8 633d 19ea ac3d
000001b0: a3c2 8dbd 9b63 533d 6341 c33d 5898 513d
000001c0: 1175 75bd 5d60 20bd 0599 89bd 5a17 51bd
000001d0: 3afc 33bd e5f9 883d 7ab6 eebc c6c3 17be
000001e0: a9b6 83bc 67a2 7e3d 2b37 38be cd31 4b3d
000001f0: 4ba4 e63d f96e 2e3d e2da 013e be8f 09bd
00000200: efcf 26bd ce5e 00be c0f4 aebc 3b63 28bd
00000210: 9e6e 3fbd 142d ccbd 861f a5b8 56d4 b93c
00000220: ce22 90bd 9887 e0bd ee42 cfbd 2877 81bd
00000230: 8c3d 283d abe8 0f3e 146c f7bd fc95 73bd
00000240: b6c8 063e 37c4 25bd 5eb9 1b3d 27d1 abbd
00000250: 1171 823c 83e5 323d 02f0 24bd 4af5 81bd
00000260: 552c 243d 101c 97bc d960 b7bc dafb e7bd
00000270: c117 24bc 8d12 49bd c901 193e 3d63 b93c
00000280: ab90 12be 0118 75bd ab89 433d fa38 893d
00000290: 4eb0 81bd 8a70 ce3b 368a 323d 470d 33bd
000002a0: bdad b43c 308d f73c e3f0 a7bd 27f3 41bb
000002b0: bd86 e4bc 65c7 cabd c59b 973d 1c73 783d
000002c0: 1007 013d f009 2dbd df92 d83c 7dac 1c3d
000002d0: ba58 713d 7492 ae3d 1827 c2bd f07e a7bd
000002e0: a30e 51bd 5386 67bc 72fd 173e 9948 083d
000002f0: bf7a 6dbd c17e 6abd 7ae9 80bd ca06 4dbb
00000300: fc2a 7cbc ca36 1e3d a043 7f3d 6539 383d
00000310: 9289 d03d 8d35 773c 3fd7 05bd 91eb d03c
00000320: 6b06 8abd 5908 6dbc 4dc2 b3bc 5994 1abd
00000330: 2273 533d 79ba b8bd e5ed 713c 8717 c0bc
00000340: f30c b13d d38c bbbb 2c73 efbd 7084 1bbd
00000350: 86bf 6fbd 10e4 54bd c7dc 273e 946c dd3d
00000360: bb9e 11bc f53e 00be dfa7 86bd 0bbc b5bd
00000370: 9117 4dbc 8b3d a5bc a702 fcbd b1b4 aebd
00000380: d7a2 1b3d 03f9 91bd dcbd 4b3d 21cb 65bb
00000390: 2585 62bc f3b9 773d 1d65 f53d fe48 56bd
000003a0: aa5d 19bd a2ee 36bb 2768 6f3d dadd 073d
000003b0: 97e6 2d3d 03d5 ae3d 6a64 053e f6d9 86bd
000003c0: 5dff 663c 921a 903d f691 08be 112f 52bb
000003d0: 6382 193e 70cb ed3d 0b69 243e cd36 243e
000003e0: b354 a43d 8d09 cabd b5c5 863c df4e 5ebd
000003f0: 1a82 30be 2fe3 873d ddad bc3d 90b1 c83d
-0.022139527 -0.16276914 0.15179165 -0.07651166 0.070276156 0.06431083 -0.09662113 0.03654933
-0.034682177 -0.14519235 0.041730646 -0.028950816 0.14085108 -0.07938415 -0.104129605 -0.018265968
0.036363523 -0.07984954 0.051565323 -0.008261766 0.05589466 -0.04780759 -0.01979679 0.12853414
-0.038362518 0.09195506 0.06985994 0.09235051 0.0026572072 -0.1718402 0.100364424 -0.111617535
-0.05713049 -0.02197639 -0.07226351 0.08791261 -0.08187347 0.01893479 -0.04650514 0.033662334
0.07421719 0.09086906 0.033177223 -0.013338693 -0.12247396 0.1415435 0.024687756 -0.13732088
0.0028476622 -0.10556937 0.026686681 0.15016814 0.10372329 -0.20607193 0.07188711 -0.04867049
0.00457416 -0.071172975 0.0650871 -0.09156909 -0.09136914 -0.060544945 0.045193452 0.10439452
-0.0059357462 0.057966586 -0.19837375 0.081782386 0.0635321 -0.10337829 -0.062723115 0.09555393
0.06919466 -0.04782512 -0.04949314 -0.13898386 0.08171263 0.02101564 -0.06830051 -0.01118076
0.033973835 -0.13016608 0.10425961 0.0061259535 0.015206944 0.06462207 0.018131264 0.075085714
0.014026137 -0.050747674 0.0019422808 -0.009941343 0.027694488 -0.04112355 -0.10960067 -0.15969922
-0.06378602 -0.08265627 -0.029192612 6.686277e-05 -0.03373506 0.057030216 0.051704247 0.11576608
0.12099563 0.0730626 0.055596337 0.08443088 -0.0692189 0.051608663 0.09533956 0.051170677
-0.059926096 -0.0391544 -0.06718639 -0.05104766 -0.043941714 0.066882886 -0.029139746 -0.14820775
-0.01607831 0.062166598 -0.17989795 0.04960804 0.11261805 0.0425863 0.12681153 -0.03358435
-0.040725645 -0.12536165 -0.02135694 -0.04111026 -0.046736352 -0.099695355 -7.873685e-05 0.022684257
-0.070378885 -0.109633625 -0.10120188 -0.063215554 0.04107432 0.140536 -0.12081161 -0.059469208
0.13162503 -0.04047033 0.038018577 -0.08389502 0.015923055 0.04367591 -0.04026795 -0.06345613
0.04008134 -0.018445998 -0.022385048 -0.11327334 -0.010015429 -0.049089957 0.14942087 0.022630328
-0.14312999 -0.059837345 0.047738712 0.067003205 -0.063324556 0.006300037 0.04358884 -0.043713834
0.022055501 0.03021869 -0.08200242 -0.0029594393 -0.02789628 -0.09901313 0.074027576 0.06065665
0.031500876 -0.042245805 0.026437221 0.038250435 0.058922507 0.085240275 -0.09480113 -0.08178508
-0.05103935 -0.0141311465 0.14842775 0.03327236 -0.057978388 -0.05724979 -0.06294532 -0.0031284564
-0.015391108 0.03862647 0.06232035 0.04497661 0.101824895 0.015088451 -0.032675978 0.025502952
-0.067395054 -0.014467322 -0.021943236 -0.03773913 0.05162347 -0.09019942 0.014766191 -0.023448719
0.08645048 -0.0057235747 -0.11691889 -0.0379681 -0.05853226 -0.05197531 0.16392814 0.10811725
-0.008887942 -0.12524016 -0.065749876 -0.08873757 -0.012517826 -0.020170948 -0.123051934 -0.08530558
0.037997093 -0.07127573 0.04974161 -0.0035063701 -0.013825689 0.06048007 0.119821765 -0.052315705
-0.03744284 -0.0027913232 0.058448937 0.03317056 0.042456236 0.085367225 0.13026586 -0.065845415
0.014098969 0.07036318 -0.1333693 -0.003207151 0.14991145 0.11611068 0.16055696 0.1603653
0.080239676 -0.09865103 0.016451696 -0.054274436 -0.1723713 0.06635129 0.09212849 0.09799492

classifier.bias f4 [15]
00000000: 7eb1 683d c38a 983d 627a 7f3d 54b2 b63c
00000010: 8782 62bc 4f4d 533d 5c58 22bd 754b fe3c
00000020: 2194 a03c d527 153d 3ff8 e3bc 7ad9 053c
00000030: 98bc 0abd 488d fa3c 1f59 7d3d
0.056809895 0.07448342 0.062372573 0.02230183 -0.013825065 0.0515874 -0.039635047 0.03104184
0.019601883 0.03641494 -0.027828334 0.008169526 -0.033871263 0.030584946 0.06185257
