models/LSTM_48_SGD_lr0.001.pt (torch_old, 557973 bytes, 8 tensors)

project_layer.weight f4 [128, 39]
0	0x3b5503a4	0.003250339
1	0xbe159585	-0.14607818
2	0xbdd48468	-0.10376817
3	0x3d00ab1f	0.031413194
4	0xbdf44124	-0.11926487
5	0x3e10c64f	0.14138149
6	0xbdb23848	-0.08702141
7	0xbd70288a	-0.05863241
8	0xbe102660	-0.14077139
9	0xbd746fa0	-0.059676766
10	0x3d17a84f	0.037025746
11	0x3dd19989	0.10234363
12	0xbd921d7b	-0.07134529
13	0xbc40d67e	-0.011769889
14	0xbe1538ca	-0.14572445
15	0xbd064d1b	-0.032788377
16	0x3c2b2043	0.0104447035
17	0x3dd258eb	0.10270866
18	0xbc9e7801	-0.019344332
19	0x3e07edf3	0.13274364
20	0x3d404a6f	0.046945985
21	0xbd23ffcd	-0.040038873
22	0xbd98fee5	-0.07470492
23	0x3d9d64d4	0.07685247
24	0xbd8328ae	-0.064042434
25	0x3dfa55f0	0.122234225
26	0xbcb68302	-0.022279266
27	0x3e158686	0.14602098
28	0x3e21e587	0.15810214
29	0x3ddf1371	0.1089238
30	0xbe11945f	-0.14216755
31	0xbdd1c91c	-0.10243437
32	0x3c84f430	0.016229719
33	0xbd34f5fd	-0.044179905
34	0x3bef6b43	0.0073064878
35	0x3d2b90f9	0.041886304
36	0xbd67d705	-0.056601543
37	0x3dcbe86e	0.09956442
38	0x3e0687d1	0.13137747
39	0x3c020fa4	0.007938299
40	0xbe17ac87	-0.14811908
41	0x3d527a67	0.051386263
42	0x3d96902d	0.07351718
43	0x3d8b9e4a	0.068173006
44	0x3dc7ddb5	0.09759084
45	0x3dbd2c90	0.09237015
46	0xbd100925	-0.03516497
47	0x3d8ebf17	0.06970041
48	0x3dc879a0	0.09788823
49	0xbdc67d23	-0.09691837
50	0xbbeb3d76	-0.0071789576
51	0x3bbdd4bf	0.0057931836
52	0x3c48aa0b	0.012247573
53	0xbd765d7a	-0.06014774
54	0x3d6cef37	0.05784532
55	0x3e1c5127	0.15265332
56	0x3d0832ba	0.0332515
57	0xbdaab8db	-0.0833604
58	0xbdfd55fc	-0.12369916
59	0xbe0db8bf	-0.13840006
60	0x3de4f22e	0.111790046
61	0xbe1d9fe3	-0.15393023
62	0x3da9d3b9	0.08292336
63	0x3e1abd03	0.15111165
64	0x3e237fb7	0.15966688
65	0x3c9f2c39	0.019430267
66	0xbd412db9	-0.047162745
67	0xbe1a3b9d	-0.15061803
68	0xbddd7c71	-0.10814751
69	0xbe1fc72e	-0.15603325
70	0x3dc4789b	0.09593316
71	0xbd8bd7e3	-0.068282865
72	0xbda7f146	-0.08200316
73	0x3c635a5e	0.013876526
74	0xbe0771b0	-0.13226962
75	0xbdc8bc57	-0.09801548
76	0xbdbc9357	-0.0920779
77	0xbde9182e	-0.11381565
78	0xbdfda31a	-0.12384625
79	0x3df675f7	0.12034219
80	0xbd686a07	-0.05674174
81	0xbce7057c	-0.028200857
82	0x3d95efcd	0.07321129
83	0x3dfe5fc8	0.124206126
84	0xbccb3931	-0.024807544
85	0x3dc1a0ef	0.09454524
86	0xbe19bd66	-0.15013656
87	0xbdeeb0e1	-0.11654831
88	0xbd783b4c	-0.060603425
89	0x3daa2c22	0.08309199
90	0xbdac291c	-0.084062785
91	0xbd01bed2	-0.03167612
92	0x3d8f25c0	0.06989622
93	0x3c2b530d	0.010456813
94	0xbc02cd43	-0.0079835085
95	0xbddbe905	-0.10737804
96	0x3db3bd6a	0.08776362
97	0x3c8eb443	0.01741994
98	0xbc9674ae	-0.018366184
99	0x3be558e8	0.006999124
100	0xbd38d417	-0.04512414
101	0x3df4394c	0.11924991
102	0xbdf71474	-0.12064448
103	0xbd0819c6	-0.033227704
104	0xbd919679	-0.071087785
105	0x3c7dbcdd	0.015486923
106	0xbde6f3b1	-0.11276949
107	0x3c43dc06	0.011954313
108	0xbdc25495	-0.09488789
109	0xbd5852c7	-0.052813318
110	0x3c7c1025	0.0153847085
111	0x3ad4a6a8	0.0016223984
112	0x3cdb9ab0	0.02680716
113	0xbe20ba08	-0.15695965
114	0xbb29792d	-0.002585958
115	0x3ca84a3f	0.020543216
116	0xbe1b3800	-0.15158081
117	0xbd950743	-0.07276776
118	0x3cdc00cb	0.026855847
119	0xbdf35822	-0.118820444
120	0x3b97b057	0.0046291756
121	0xbdc75eb3	-0.09734859
122	0xbdd1d286	-0.10245232
123	0xbe0cad4a	-0.1373798
124	0xbe1d12d6	-0.15339217
125	0x3db1c9b1	0.08681048
126	0x3de6884a	0.11256464
127	0x3e36ab4e	0.17838785
128	0xbd7cce8f	-0.061720427
129	0xbdb9b1da	-0.090671256
130	0x3d2a0d1f	0.04151642
131	0x3d0150aa	0.031571068
132	0xbdf6d29b	-0.120518886
133	0x3dc54046	0.096314
134	0xbd60aeda	-0.05485425
135	0x3da851e2	0.08218743
136	0x3e08891a	0.1333355
137	0xbe1eac51	-0.15495421
138	0x3e0f6e6f	0.14006971
139	0x3d8b6167	0.068056874
140	0xbe038f80	-0.1284771
141	0xbddf1b8b	-0.10893925
142	0x3d7ece89	0.062208686
143	0xbcebb147	-0.028771056
144	0xbd0cf1cf	-0.034410294
145	0xbd28245f	-0.04105031
146	0x3dbfe17e	0.09369181
147	0xbd0a8ffd	-0.033828724
148	0xbd7c5358	-0.06160292
149	0x3b9a3d9e	0.0047070524
150	0x3e1b4a63	0.15165095
151	0xbd2d1558	-0.042256683
152	0xbbeb61df	-0.007183298
153	0xbc9954e9	-0.018717246
154	0xbdf249d8	-0.11830491
155	0xbb6cb038	-0.0036115777
156	0xbe22fb48	-0.15916169
157	0x3e11267b	0.14174835
158	0x3ca08f3a	0.019599546
159	0xbdf126fb	-0.11775013
160	0x3cc73b4b	0.024320265
161	0x3c7e4c98	0.015521191
162	0xbcb7c9e7	-0.022435142
163	0x3da2c8b2	0.07948436
164	0xbd79c60e	-0.060979895
165	0xbc8dca93	-0.017308509
166	0x3c1c60a0	0.009544522
167	0x3dbd7e6c	0.09252629
168	0x3e142b73	0.144697
169	0xbde66e1c	-0.112514704
170	0x3d457862	0.04821051
171	0x3d5dcc41	0.05414987
172	0xbd15fe44	-0.03661944
173	0xbd9eda4f	-0.07756483
174	0xbe094ac1	-0.13407423
175	0x3d9b162d	0.07572589
176	0xbd557c21	-0.05212033
177	0x3dd765ad	0.1051744
178	0x3df74e26	0.120754525
179	0x3cafa5aa	0.0214413
180	0x3d243452	0.04008896
181	0x3e0f5e2f	0.14000772
182	0x3d9142a3	0.07092788
183	0x3db4e877	0.08833402
184	0x3dbcf461	0.09226299
185	0xbd7446a2	-0.059637673
186	0xbd8ab8ff	-0.067735665
187	0x3d81c099	0.06335563
188	0xbd057d51	-0.032590214
189	0x3d9ac9e6	0.0755804
190	0x3c7409de	0.014894931
191	0xbd8a354d	-0.067484476
192	0x3daf5724	0.08561543
193	0xbdfd1e4b	-0.123592936
194	0x3d8741c1	0.066043384
195	0x3e1cedfd	0.1532516
196	0x3e0eecb0	0.13957477
197	0xbd4d04c3	-0.05005337
198	0x3e0e776a	0.1391274
199	0x3d81ca16	0.06337373
200	0x3c571a1e	0.013128785
201	0xbdd7eed1	-0.105435975
202	0xbc9e454b	-0.01932015
203	0xbd2618ac	-0.040550873
204	0xbe1093eb	-0.14118926
205	0x3e019b62	0.1265693
206	0x3cbf2fdd	0.023338253
207	0xbe24dcbd	-0.1609983
208	0x3d75847d	0.059940804
209	0x3c489557	0.012242637
210	0x3dd70d07	0.10500532
211	0xbdd61ca6	-0.10454683
212	0x3e13b543	0.14424615
213	0x3d8cbd22	0.06872012
214	0xbe232646	-0.15932569
215	0x3cad942c	0.021188818
216	0xbc5b7dc9	-0.013396689
217	0xbe0c3a60	-0.13694143
218	0x3dca867f	0.09888934
219	0xbdf166d8	-0.11787194
220	0x3da12917	0.078691654
221	0x3de4c86b	0.11171039
222	0x3d7ea833	0.062172126
223	0xbdc6b3fd	-0.09702299
224	0xbd082b6a	-0.033244528
225	0x3def5f0e	0.11688052
226	0x3df11776	0.11772053
227	0xbda55e02	-0.08074571
228	0x3ce6abe3	0.028158134
229	0xbd1d2c9a	-0.038372613
230	0xbe230f4a	-0.15923801
231	0xbe1a386e	-0.15060589
232	0xbdbd23b9	-0.09235329
233	0x3c9489d6	0.018132132
234	0xbe1d5929	-0.15366043
235	0xbe0b6d5c	-0.13615936
236	0xbda43e4f	-0.08019697
237	0x3d8fb82f	0.07017552
238	0xbe284915	-0.16434129
239	0x3cc381eb	0.02386566
240	0x3bddcec5	0.0067690336
241	0x3dc8b03b	0.09799238
242	0x3e0a2737	0.13491522
243	0xbe04c107	-0.12964259
244	0x3dce1a6f	0.100636356
245	0xbd706d7f	-0.058698174
246	0xbd918947	-0.07106262
247	0x3df74719	0.12074108
248	0x3ce363b3	0.027757501
249	0xbd615384	-0.055011287
250	0xbda6656e	-0.08124815
251	0xbd9b71d9	-0.07590074
252	0x3dc792b9	0.09744782
253	0x3d66533a	0.056231715
254	0x3c2f84cc	0.010712814
255	0xbdd383ce	-0.10327874

project_layer.bias f4 [128]
0	0xbe1239dd	-0.14279886
1	0x3d03b39a	0.032153703
2	0xbd429413	-0.047504496
3	0xbdd14e17	-0.102199726
4	0xbd5e42e3	-0.054263007
5	0x3df14d37	0.11782306
6	0xbdd38fad	-0.10330138
7	0x3d89b97c	0.067248315
8	0x3dc67d71	0.09691895
9	0xbe1205d0	-0.1426003
10	0xbd9361eb	-0.07196411
11	0x38d1d059	0.000100047044
12	0xbd58a025	-0.0528871
13	0xbd8aaf0d	-0.067716695
14	0x3dd6b7e7	0.10484295
15	0xbdef66a3	-0.11689498
16	0xbe0a2f7b	-0.13494675
17	0x3d34b64c	0.044119164
18	0xbd15e83e	-0.036598437
19	0xbd1aa5c7	-0.037755754
20	0x3ce5b393	0.02803973
21	0x3dc14d01	0.094385155
22	0x3c722716	0.014779827
23	0x3d34f52b	0.044179123
24	0xbdd450cc	-0.10366973
25	0x3dc7c578	0.09754461
26	0x3e100632	0.14064863
27	0xbe1fedd1	-0.15618064
28	0xbe207f73	-0.15673618
29	0xbdd9317d	-0.10605142
30	0xbdfc266e	-0.123120174
31	0x3d5b3efe	0.05352687
32	0xbcb3e3b1	-0.021959158
33	0xbc942a4a	-0.018086571
34	0x3d4728bd	0.048622835
35	0x3dcf10f8	0.101106584
36	0xbd324d57	-0.04353079
37	0x3e0544a0	0.1301446
38	0xbe1419d0	-0.14462972
39	0x3dd338eb	0.103135906
40	0xbdfc125e	-0.12308191
41	0xbd0b3450	-0.033985436
42	0x3df0703e	0.117401585
43	0x3d214e39	0.03938124
44	0x3e095920	0.13412905
45	0xbdbf8cf9	-0.0935306
46	0xbd3aaccf	-0.04557496
47	0xbe1f2328	-0.15540755
48	0xbe1d63e9	-0.15370144
49	0xbdbd61c5	-0.09247164
50	0xbcd8ec81	-0.026479961
51	0xbd5ba705	-0.05362608
52	0x3dd3c8a0	0.103410006
53	0xbd797475	-0.060902078
54	0xbc102a53	-0.008799153
55	0xbd417117	-0.04722699
56	0xbe031635	-0.1280144
57	0xbc25bf8a	-0.010116467
58	0x3e1e5b03	0.15464406
59	0x3d805fdf	0.06268286
60	0x3d5b7e78	0.053587407
61	0xbd572fe5	-0.05253591
62	0x3e0c53ca	0.13703838
63	0x3e031d9d	0.12804265
64	0x3b71b679	0.0036882444
65	0x3df2954f	0.118448846
66	0x3d95d6d5	0.073163666
67	0xbd1f1b16	-0.03884419
68	0xbd7fe797	-0.06247672
69	0xbe0722ad	-0.13196822
70	0xbdc27cb7	-0.09496444
71	0xbe00a5c8	-0.1256324
72	0x3d4b6b54	0.049662903
73	0x3da4045c	0.08008644
74	0xbe0c67b7	-0.13711439
75	0x3d341766	0.043967627
76	0x3d853b18	0.06505412
77	0x3e110702	0.1416283
78	0x3dfe394b	0.124132715
79	0x3d9cfa4d	0.076649286
80	0xbdda1e79	-0.106503434
81	0x3e078e9e	0.13237998
82	0x3d8af338	0.067846715
83	0x3dcd47e1	0.100234754
84	0xbda32a97	-0.07967108
85	0xbd0c268e	-0.034216456
86	0x3dcd3223	0.100193284
87	0xbe1d6c48	-0.15373337
88	0xbdf7c231	-0.12097586
89	0xbdb9f30d	-0.090795614
90	0x3ba5f7ed	0.0050649554
91	0xbd997e0d	-0.074947454
92	0xbdbac4b3	-0.09119549
93	0x3d174d09	0.0369387
94	0x3df69bca	0.12041433
95	0x3dd3db91	0.10344613
96	0x3e120973	0.14261417
97	0x3e054a3c	0.130166
98	0xbd11ecae	-0.035626106
99	0xbc644216	-0.013931772
100	0xbe2686cd	-0.1626236
101	0x3b8771eb	0.004133453
102	0xbc01aa87	-0.007914192
103	0xbd796895	-0.060890753
104	0xbda2141b	-0.07913991
105	0xbddf6ffa	-0.1091003
106	0x3d93b926	0.07213049
107	0x3ca04bb1	0.019567342
108	0x3e0dd387	0.13850223
109	0xbce89670	-0.028392047
110	0x3d3be4fe	0.04587268
111	0x3c4ea69f	0.012612968
112	0x3da56631	0.08076132
113	0x3db42f83	0.08798125
114	0x3ce3aa66	0.027791213
115	0x3c0dac28	0.008647002
116	0x3c2343e9	0.0099649215
117	0xbe239bb7	-0.15977369
118	0xbdce5630	-0.10075033
119	0x3d88af56	0.06674068
120	0x3dbba0f2	0.09161557
121	0x3d19d445	0.03755595
122	0xbdc4b111	-0.09604085
123	0xbc7cd984	-0.015432719
124	0x3e1c8b9c	0.15287632
125	0xbdf14002	-0.11779787
126	0x3dc407cb	0.09571799
127	0xbccf6dfa	-0.025320996

rnn_layer.weight_ih_l0 f4 [512, 128]
0	0x3d5f6c76	0.054546796
1	0x3d120d81	0.03565741
2	0x3da7accd	0.08187256
3	0xbd433384	-0.04765655
4	0xbdac19a8	-0.08403331
5	0xbd8cd5fd	-0.068767525
6	0xbd941506	-0.072305724
7	0xbd23ee83	-0.040022384
8	0x3d8224d7	0.06354683
9	0x3d2c22c0	0.042025328
10	0x3d8e02b3	0.069341086
11	0xbd65a3f5	-0.056064565
12	0xbb5e3488	-0.0033905823
13	0x3d04676d	0.032325197
14	0x3db43aa2	0.08800246
15	0xbda5fb01	-0.08104516
16	0x3b936889	0.0044985455
17	0xbcb1c878	-0.021702036
18	0x3d61d0f0	0.0551309
19	0x3da21233	0.079136275
20	0x3cd11f48	0.025527611
21	0xbdbde7e7	-0.092727475
22	0xbcab8170	-0.020935744
23	0xbd4c1396	-0.049823366
24	0x3d5378eb	0.05162899
25	0xbdbbc5be	-0.09168576
26	0xbcf3f92d	-0.029781902
27	0x3d8b56d1	0.06803668
28	0x3d1e4ab1	0.03864545
29	0xbc653cfe	-0.013991592
30	0xbc910e0c	-0.017706893
31	0xbdbeedb5	-0.09322683
32	0xbd1e524d	-0.038652707
33	0x3d8632e9	0.06552679
34	0x3d33e760	0.04392183
35	0x3d1c5e2e	0.038175754
36	0x3d89e07b	0.067322694
37	0xbc6b638a	-0.014366994
38	0xbb4146fc	-0.0029491773
39	0x3c9dff61	0.019286813
40	0x3cb70ba0	0.02234441
41	0x3c903399	0.017602729
42	0x3ccdde12	0.025130305
43	0x3d537cd9	0.051632736
44	0x3a4a4898	0.0007716506
45	0xbd67f03c	-0.05662559
46	0xbdb73ac2	-0.08946754
47	0x3dc41520	0.09574342
48	0xbcebedbf	-0.02879989
49	0xbd9854a8	-0.07438022
50	0x3c2dccd9	0.0106079215
51	0x3daf5c58	0.08562535
52	0x3cec72d0	0.02886334
53	0x3dcb84ff	0.09937476
54	0x3ce56c5b	0.02800577
55	0x3d4105ca	0.04712466
56	0x3cc7c7a2	0.024387185
57	0xbcc19321	-0.023629727
58	0xbdc191ea	-0.09451659
59	0xbd917272	-0.07101907
60	0xbdcacd80	-0.09902477
61	0x3d9198ce	0.07109223
62	0xbcb18844	-0.021671422
63	0xbd83bb3a	-0.06432195
64	0x3c57287d	0.013132212
65	0xbda1314f	-0.07870733
66	0x3d981a06	0.074268386
67	0xbbe50acc	-0.0069898125
68	0xbd2ecbc9	-0.042674813
69	0xbd1e0ef2	-0.03858847
70	0xbd9ee071	-0.077576526
71	0xbb970d1c	-0.004609717
72	0xbdbf9ee5	-0.093564786
73	0x3cd3181c	0.025768332
74	0xbd136069	-0.035980616
75	0xbd52fe91	-0.051512305
76	0xbcb6b588	-0.022303358
77	0x3d7ae35d	0.061251987
78	0x3d4d3566	0.050099753
79	0x3cea68fa	0.02861451
80	0x3d275293	0.040850233
81	0x3dad0a73	0.08449259
82	0xbdc9d139	-0.09854359
83	0x3d3543e7	0.04425421
84	0xbd917698	-0.07102698
85	0x3d755920	0.05989945
86	0x3da37fff	0.07983398
87	0xbc96f8f6	-0.01842926
88	0x3c3726db	0.011178697
89	0xbd6e3a87	-0.058161285
90	0x3da57f6a	0.08080943
91	0xbccf9f8d	-0.025344634
92	0xbdadec48	-0.08492333
93	0x3d017074	0.031601384
94	0xbbfb361f	-0.007666364
95	0xbc9eb526	-0.019373488
96	0x3c080636	0.008302262
97	0x3c665b6e	0.0140598845
98	0xbdb0ac61	-0.08626629
99	0xbcc6ad06	-0.024252426
100	0xbcbed885	-0.023296604
101	0x3d3bcd95	0.045850355
102	0xbccc898e	-0.024967935
103	0xbd980a03	-0.074237846
104	0xbd37f7ae	-0.04491394
105	0xbcbe934c	-0.023263596
106	0x3d671f55	0.056426365
107	0x3da8d892	0.082444325
108	0x3c83bc68	0.01608105
109	0xbdc31134	-0.095247656
110	0xbcfeedbb	-0.031119218
111	0x3c84122f	0.016121952
112	0xbc2fa483	-0.010720375
113	0x3d8d87ed	0.069106914
114	0x3d93b789	0.07212741
115	0x3b39af3b	0.0028333205
116	0x3d6730a3	0.056442868
117	0xbd863f0b	-0.06554993
118	0xbdce141f	-0.100624315
119	0x3d01d66e	0.031698637
120	0x3dced148	0.10098511
121	0x3d8148ba	0.063126996
122	0xbd685841	-0.05672479
123	0x3d67fd83	0.056638252
124	0x3d6c9269	0.057756815
125	0x3d8eb353	0.06967797
126	0xbcbea0a9	-0.023269968
127	0xbdd62cb8	-0.10457748
128	0xbdbb9800	-0.09159851
129	0x3cd6ebf3	0.026235556
130	0xbca781d1	-0.020447643
131	0x3d6298e9	0.055321608
132	0xbc816a6f	-0.015797822
133	0xbda9c386	-0.08289246
134	0xbdb92c20	-0.09041619
135	0x3dae75a4	0.08518532
136	0xbd15918b	-0.036515754
137	0xbcd2ae50	-0.025717884
138	0xbc2efc54	-0.010680277
139	0xbcdbbb0f	-0.026822595
140	0x3d9f5d1f	0.07781433
141	0x3da7ebfa	0.08199306
142	0xbcc095e7	-0.023508979
143	0xbdb455e4	-0.08805445
144	0x3bfef49d	0.007780625
145	0xbd877b16	-0.06615274
146	0x3da59b21	0.08086229
147	0x3ccb207c	0.024795763
148	0x3d6e622a	0.058199085
149	0xbdcb091b	-0.09913846
150	0xbd824341	-0.06360484
151	0xbd266989	-0.04062799
152	0xbd958429	-0.07300598
153	0x3db2bdce	0.087276086
154	0xbd8bfb10	-0.06834996
155	0xbb3970d7	-0.0028296018
156	0x3da69393	0.08133616
157	0xbbb68800	-0.0055704117
158	0xbccefc60	-0.025266826
159	0x3a9d191d	0.0011985634
160	0xbbe67ca2	-0.0070339004
161	0xbb80c8df	-0.0039301957
162	0x3d7bbc5b	0.061458927
163	0xbda63899	-0.08116264
164	0xbd4fa431	-0.050693695
165	0xbd7cde35	-0.06173535
166	0xbdbbac96	-0.091637775
167	0xbd6357e1	-0.05550373
168	0xbda317d2	-0.07963528
169	0xbd138410	-0.036014616
170	0x3cca7dc0	0.024718165
171	0xbcff99fd	-0.031201357
172	0x3cf521bb	0.02992331
173	0xbd973fb6	-0.07385199
174	0xbd275cb8	-0.040859908
175	0xbd1c233f	-0.03811955
176	0xbcf45388	-0.029824987
177	0x3ccfcd35	0.025366405
178	0xbd9a8aea	-0.07546027
179	0x3caa6ac5	0.020802865
180	0xbd9794c9	-0.074014254
181	0x3d2768b8	0.040871352
182	0xbd4164a1	-0.047215108
183	0xbcd6aa40	-0.026204228
184	0xbc9dd076	-0.019264441
185	0x3d90c3db	0.070686065
186	0xbd6c8d78	-0.057752103
187	0x3cd827d6	0.026386183
188	0xbdb29d06	-0.08721356
189	0xbbfceeda	-0.007718903
190	0x3db74ed6	0.08950584
191	0x3c5798ea	0.013159016
192	0xbd69ef3a	-0.05711291
193	0xbd6dfe6d	-0.058103967
194	0x3d981cf0	0.074273944
195	0x3cfbb598	0.03072624
196	0xbc833939	-0.016018497
197	0xbb94225f	-0.004520699
198	0x3d494d8c	0.04914622
199	0xbc757ba2	-0.01498309
200	0xbda0fff2	-0.07861318
201	0x3ccd9e81	0.025099995
202	0x3d14ba47	0.03631046
203	0x3d318dbf	0.04334807
204	0xbd7cd505	-0.06172659
205	0xbd51c227	-0.05121055
206	0x3c9ae75e	0.018909153
207	0xbd97dfeb	-0.07415756
208	0x3db76eb3	0.08956661
209	0xbc7151c5	-0.014728968
210	0xbdad73b1	-0.08469332
211	0x3d82a3b7	0.063788824
212	0xbd440911	-0.04786021
213	0x3d85e0b5	0.06537
214	0xbd8c3142	-0.06845333
215	0xbd9dd9f4	-0.07707587
216	0x3bed9d0e	0.0072513884
217	0xbd30a2f7	-0.043124165
218	0x3d884a34	0.06654778
219	0xbd7fc52f	-0.06244391
220	0x3cd0f0b6	0.025505405
221	0x3cf580b5	0.029968599
222	0x3b93d038	0.0045109056
223	0xbb801921	-0.0039092456
224	0xbd8b70fa	-0.06808658
225	0x3cafc87f	0.021457909
226	0x3cbcdf17	0.023055596
227	0xbd9f56f0	-0.07780254
228	0x3d497381	0.04918242
229	0x3d74d5b8	0.05977413
230	0x3da73e11	0.08166135
231	0xbc84d689	-0.01621558
232	0xbdbed667	-0.09318238
233	0xbdb76eea	-0.08956702
234	0x3caf502a	0.02140053
235	0xbd5d8938	-0.05408594
236	0x3d59773a	0.05309222
237	0x3cf30fa2	0.02967054
238	0xbd9d9f6a	-0.076964214
239	0x3cfbfa9b	0.030759146
240	0xbc8ce6da	-0.017199922
241	0xbdb5f7b0	-0.08885133
242	0xbd01537b	-0.031573754
243	0xbd4bb428	-0.049732357
244	0xbcae6797	-0.02128963
245	0xbd7f0de4	-0.062269107
246	0xbd60c24b	-0.054872792
247	0xbd8e3470	-0.069435954
248	0x3d8140af	0.063111655
249	0xbc0a43c4	-0.008439008
250	0x3da20bc0	0.079123974
251	0x3d925e14	0.0714685
252	0xbc4d8ef5	-0.012546291
253	0xbd0ae7ba	-0.033912398
254	0x3d996f95	0.07491986
255	0x3cf02753	0.029315626

rnn_layer.weight_hh_l0 f4 [512, 128]
0	0x3d46f221	0.048570756
1	0xbd6b0a44	-0.057382837
2	0xbdae0919	-0.08497829
3	0x3d031aca	0.03200797
4	0x3cc15c38	0.023603544
5	0x3d91d315	0.07120339
6	0x3d092932	0.033486553
7	0xbd19096a	-0.037362494
8	0x3d63a806	0.05558016
9	0x3d018e41	0.031629805
10	0x3d6a889d	0.05725919
11	0xbd29037a	-0.04126308
12	0x3d2ec8e8	0.042672068
13	0x3d2cef55	0.042220432
14	0x3d57165b	0.052511554
15	0x3cdffade	0.027341302
16	0x3d65d6cd	0.056113053
17	0xbb59d263	-0.0033236973
18	0x3d53bfeb	0.0516967
19	0x3c7fbd70	0.01560913
20	0xbb960467	-0.0045781615
21	0xbc2b2020	-0.010444671
22	0x3d3e98b9	0.046532366
23	0x3d7607b5	0.060065944
24	0xbc1283c4	-0.008942548
25	0xbd2bc5aa	-0.041936554
26	0xbda32b8c	-0.0796729
27	0x3c528e30	0.012851283
28	0x3caae10c	0.020859264
29	0xbcccf8b6	-0.025020938
30	0xbccabcd9	-0.024748253
31	0x3bd1af65	0.0063990825
32	0x3cc29fa9	0.023757773
33	0x3c3db237	0.011578134
34	0x3cd25904	0.025677212
35	0xbb8dad9e	-0.0043236753
36	0x3ca2adea	0.01985832
37	0x3cc94ecc	0.024573706
38	0x3c02da8d	0.007986677
39	0x3d710c5b	0.058849674
40	0xbd25930a	-0.04042343
41	0x3c5ce080	0.013481259
42	0x3cf3c496	0.029756825
43	0xbc83391a	-0.01601844
44	0xbd0ddaac	-0.03463237
45	0x3d6fe795	0.058570463
46	0x3d07da2c	0.03316705
47	0xbd0629e3	-0.03275479
48	0xbdbb53d3	-0.091468476
49	0x3c6b46f6	0.01436018
50	0xbdcfd711	-0.101484425
51	0xbd39e14a	-0.045380868
52	0x3d094cc5	0.03352048
53	0xbcae59ac	-0.021282993
54	0x3cbd257c	0.023089163
55	0xbd0cc156	-0.034364067
56	0x3cd9dd00	0.026594639
57	0x3b61c9ef	0.0034452637
58	0x3d2fb107	0.042893436
59	0xbd28ff2c	-0.041258976
60	0xbc86f7e1	-0.01647562
61	0xbc5393a8	-0.012913622
62	0x3c8da8a6	0.017292332
63	0x3d8f807c	0.07006928
64	0x3d7d031b	0.06177054
65	0x3c7964c3	0.015221777
66	0x3ca1e7c1	0.01976383
67	0xbcb20177	-0.021729214
68	0xbc2292a9	-0.009922662
69	0x3d23233d	0.039828528
70	0xbd6e99dd	-0.058252204
71	0x3d761ff2	0.06008906
72	0xbd2c7012	-0.042099066
73	0x3c29527b	0.010334606
74	0xbcadf0fb	-0.021233073
75	0x3d031a18	0.032007307
76	0xbd45c713	-0.048285555
77	0xbd7eb001	-0.06217957
78	0xbd4b6df5	-0.04966541
79	0xbd220f22	-0.039565213
80	0xbc3e6115	-0.011619826
81	0x3bb4e4c4	0.005520435
82	0x3d5d900f	0.054092463
83	0xbb81514f	-0.0039464603
84	0xbbb94ea4	-0.0056551266
85	0xbcb3d061	-0.021949949
86	0x3bef7416	0.0073075397
87	0xbdafdc26	-0.08586912
88	0x3d6a7132	0.057236858
89	0x3c08b405	0.008343701
90	0x3d10a96e	0.03531783
91	0xbe031652	-0.12801483
92	0xbc111ade	-0.008856503
93	0x3d51c45f	0.051212665
94	0x3d2f6cf6	0.042828523
95	0xbcd9799d	-0.026547248
96	0xbba0c35c	-0.004906101
97	0x3d00a8e0	0.03141105
98	0x3d4cb396	0.049975954
99	0x3d4a37d0	0.049369633
100	0xbd781022	-0.06056226
101	0x3c62685d	0.013818827
102	0xba73e5df	-0.0009303968
103	0x3b6927c5	0.0035576683
104	0xbd449242	-0.047991045
105	0xbafa462d	-0.00190944
106	0x3cbc023a	0.02295028
107	0xbca3bbc8	-0.019987002
108	0xbd734237	-0.05938932
109	0xbd0a1631	-0.03371257
110	0x3b9d910d	0.004808551
111	0xbd845f34	-0.06463471
112	0xbc5c79d6	-0.013456782
113	0x3d8e9e87	0.069638304
114	0x3cc3dd86	0.023909342
115	0xbc10a964	-0.008829448
116	0x3d7f8e0c	0.062391326
117	0x3c175539	0.009236627
118	0x3d015247	0.031572606
119	0x3c5b9dd2	0.0134043265
120	0xbc19e0d3	-0.009391981
121	0x3d6d7312	0.057971068
122	0x3ca293f4	0.01984594
123	0x3ccadac2	0.024762515
124	0x3afee69a	0.0019447387
125	0xbb925e28	-0.0044667907
126	0xbd553ee2	-0.052061923
127	0x3d553dde	0.052060954
128	0x3d497dbf	0.049192186
129	0xbcb51147	-0.022102965
130	0x3c0b1b78	0.008490436
131	0xbcb0dd28	-0.02158983
132	0x3d8b913e	0.06814812
133	0x3da25ea7	0.0792821
134	0x3d7f20fa	0.06228731
135	0xbd768b45	-0.06019141
136	0x3c372c39	0.011179977
137	0xbc6db355	-0.014508088
138	0x3c4f9b36	0.0126712825
139	0x3d451783	0.048118126
140	0xbd3bc650	-0.045843422
141	0x3c51e3ab	0.012810628
142	0xbd1df7ea	-0.038566507
143	0x3c9a33fe	0.01882362
144	0x3b215630	0.0024618022
145	0x3c56d408	0.013112076
146	0xbbcefd1c	-0.006316794
147	0xbb49dea2	-0.0030802866
148	0xbd1c9ed0	-0.038237393
149	0xbc7d0161	-0.015442223
150	0xbd22a5ec	-0.039709017
151	0x3ca03231	0.019555183
152	0x3b809739	0.003924277
153	0xbdaf3ff2	-0.085571185
154	0x3c15b01c	0.009136226
155	0x3c1364b9	0.008996182
156	0x3d11381c	0.0354539
157	0x3d4bb86c	0.049736425
158	0xbd29db76	-0.04146906
159	0x3aef132f	0.001823997
160	0x3d3beb0b	0.04587845
161	0xbcca8076	-0.024719458
162	0x3d9afff6	0.07568352
163	0x3d8256b7	0.06364196
164	0xbd0c71df	-0.034288283
165	0x3bb9d9cf	0.0056717168
166	0x3d7e0328	0.06201473
167	0x3cfd8cce	0.03095093
168	0xbd31b096	-0.043381296
169	0x3bdb3d9d	0.0066906945
170	0xbca2f038	-0.019889936
171	0x3ccbc36b	0.024873456
172	0x3af60d06	0.0018772192
173	0x3c819d92	0.015822206
174	0xbb406009	-0.0029354116
175	0x3e0e69ed	0.13907595
176	0xbba36413	-0.004986295
177	0xbd4db361	-0.050219897
178	0x3cf48a9e	0.029851254
179	0x3daba199	0.08380432
180	0xbc4a4386	-0.0123452
181	0x3c5dd3c1	0.013539256
182	0x3c943857	0.018093271
183	0x3d330366	0.043704413
184	0xbd733f97	-0.059386816
185	0xbc2f12af	-0.010685607
186	0xbba88922	-0.0051433006
187	0x3c023bce	0.007948829
188	0xbbc5eeca	-0.0060404288
189	0x3d5a7831	0.05333728
190	0x3b2a82db	0.0026017937
191	0xbb9f2fba	-0.0048579844
192	0xbd918755	-0.07105891
193	0x3ccd3738	0.025050744
194	0xbcec282e	-0.028827753
195	0xbde50881	-0.111832626
196	0xbc8bdba0	-0.017072499
197	0xbd14c99b	-0.03632508
198	0xbd29b5b5	-0.041433055
199	0x3d501b73	0.050807428
200	0x3d20a103	0.039216053
201	0xbc399954	-0.01132806
202	0x3d3c240d	0.04593282
203	0x3b68ff6b	0.0035552632
204	0x3c7c8203	0.015411857
205	0x3d083fd3	0.033263993
206	0xbd0f7128	-0.035020024
207	0x3d16a878	0.036781758
208	0x3d78f344	0.06077887
209	0x3c287ccb	0.010283659
210	0x3bc41935	0.00598445
211	0x3d851fa3	0.06500175
212	0x3cbdc86d	0.02316686
213	0x3cc883ff	0.024477003
214	0xbd9be387	-0.07611757
215	0x3d30ff8e	0.043212466
216	0x3ca507cd	0.020145321
217	0x3d362c1b	0.044475656
218	0x3bf91bc4	0.007602187
219	0x3cbb98d9	0.022900032
220	0xbdc8afd1	-0.09799159
221	0xbcc54705	-0.024081716
222	0x3d88b803	0.066757225
223	0xbd14a3aa	-0.036288895
224	0x3ca1e139	0.019760715
225	0x3db060cc	0.086122125
226	0xbc87c046	-0.016571175
227	0x3d05413e	0.032532923
228	0x3d2e5e95	0.04257067
229	0x3d8f7472	0.07004632
230	0xbd86f568	-0.06589776
231	0x3d766b05	0.060160656
232	0x3dcb35a7	0.09922343
233	0x3b3b1308	0.002854528
234	0xbcfba508	-0.030718341
235	0xbaebc0c0	-0.0017986521
236	0x3b7629bb	0.0037561494
237	0x3b80fd75	0.0039364644
238	0x3d1e6b0e	0.038676314
239	0x3c8c01fc	0.01709079
240	0xbbb5a758	-0.0055436306
241	0x3b5a7a28	0.003333697
242	0xbdcaab49	-0.09895951
243	0xbc545804	-0.012960438
244	0x3cb38df4	0.021918274
245	0x3d155761	0.036460284
246	0xbd15c341	-0.03656316
247	0x3bcb9440	0.006212741
248	0xbd22c9d3	-0.039743256
249	0x3d99615e	0.074892744
250	0xbc8d7b21	-0.017270627
251	0xbd2a559a	-0.041585542
252	0xbb3c5b30	-0.0028740875
253	0xbb747ca9	-0.0037305749
254	0xbcd69d9a	-0.026198197
255	0x3d8e8122	0.06958224

rnn_layer.bias_ih_l0 f4 [512]
0	0x3b2b645e	0.0026152353
1	0xb9bd4a8d	-0.00036104434
2	0x3af0e0f3	0.0018377587
3	0x3b1256b3	0.0022329509
4	0x3a3d9ee6	0.00072334555
5	0x39157c56	0.00014256066
6	0x39f9b010	0.00047624158
7	0x3b1c94b0	0.0023892336
8	0x3a4be1d8	0.0007777489
9	0x3987f188	0.0002592916
10	0x393a3e2d	0.00017761505
11	0x3a264be3	0.00063437055
12	0x3a8a4a88	0.0010550776
13	0x3a8c4aac	0.0010703406
14	0x3aaa3fa8	0.0012988942
15	0x3a3999f6	0.0007080132
16	0x3af6b19e	0.0018821245
17	0x3a306d54	0.00067301583
18	0xb794b533	-1.7727352e-05
19	0x39cff702	0.00039666152
20	0x3aaa1598	0.0012976406
21	0x3af4ef68	0.0018687071
22	0x3a2310a4	0.0006220436
23	0x3aa629d6	0.0012677263
24	0x3a718644	0.00092134275
25	0x3aabe861	0.0013115519
26	0x3a57ccde	0.0008232127
27	0xba707446	-0.00091725995
28	0x385cea93	5.267055e-05
29	0x3a94b3a9	0.0011345047
30	0x3aaf10cf	0.001335645
31	0x3a83d27b	0.0010057235
32	0x3a8b7fce	0.0010642947
33	0x3a568cc6	0.0008184429
34	0x3a3cae05	0.0007197562
35	0xb800cfaf	-3.0711e-05
36	0x3ac53f92	0.0015048853
37	0x3a93a967	0.0011265696
38	0xb8de7d23	-0.000106090934
39	0xb8c6761e	-9.463377e-05
40	0x3aebc413	0.0017987512
41	0x3aecf4bc	0.0018078308
42	0x3a8f3cb4	0.0010928125
43	0xb7985cd1	-1.8163033e-05
44	0x3ac47a73	0.0014990106
45	0x3a1969b3	0.0005852237
46	0x3ab5cd3a	0.0013870366
47	0x39550744	0.0002031597
48	0xb98d2f6e	-0.00026928954
49	0x39896555	0.00026206175
50	0x39faf858	0.00047868746
51	0x3b070844	0.0020604292
52	0xba3d0f89	-0.0007212093
53	0xb95e2628	-0.00021185784
54	0x3b0b85c5	0.002128945
55	0x39a12d01	0.00030741844
56	0x3a9809ef	0.001159964
57	0x380624d0	3.1982374e-05
58	0x3a7ffc86	0.0009765107
59	0x39cc192a	0.0003892866
60	0x3b035676	0.0020040548
61	0x3a4b2f1b	0.0007750855
62	0x3a3668d8	0.0006958372
63	0x39a3aed2	0.00031220034
64	0x3a21aea5	0.00061676867
65	0x39f8accc	0.0004743099
66	0x3aa09f35	0.0012254479
67	0x3926007d	0.00015831176
68	0x3a22f163	0.0006215779
69	0x3a4e07af	0.00078594213
70	0xb9518d76	-0.00019984492
71	0x3b136e8a	0.0022496306
72	0x3ae0f493	0.0017162733
73	0x3a203c31	0.0006112485
74	0x3b2c6313	0.002630417
75	0x3a945a9d	0.0011318509
76	0x3ad02eaa	0.0015883048
77	0x3a0a7875	0.0005282232
78	0x3a148784	0.00056659454
79	0x38a77091	7.984148e-05
80	0x3ac1b0f5	0.0014777469
81	0x3a96d91e	0.0011508798
82	0x3b2bd2a3	0.0026218079
83	0x3b2f4ca4	0.0026748562
84	0xb8692d05	-5.5593457e-05
85	0x394183aa	0.00018454963
86	0x39a9cf54	0.00032388663
87	0xb88d818b	-6.747533e-05
88	0x3a926cfb	0.0011171395
89	0x3a6839ee	0.000885873
90	0x3b04f339	0.0020286574
91	0x3a0badb6	0.0005328314
92	0x3a0b892d	0.000532287
93	0x3a9b69d7	0.0011857104
94	0x3a46afd5	0.00075793016
95	0x3a8b0687	0.0010606804
96	0xb9dbc0f6	-0.00041914702
97	0x3a692fe7	0.00088953826
98	0x39886ee7	0.0002602257
99	0x3abc9d89	0.0014390211
100	0x3b1b3936	0.0023685223
101	0x3ae5e13e	0.0017538441
102	0x39564b38	0.00020436652
103	0x3a6707f4	0.0008813136
104	0xba1fc6b9	-0.00060949806
105	0x3a29a170	0.00064708944
106	0x3a8b0c8a	0.0010608595
107	0x3a0c7300	0.00053577125
108	0x3a96bfeb	0.0011501288
109	0x3b1abc7e	0.0023610885
110	0x39761077	0.00023466522
111	0x3a018f16	0.0004942281
112	0x39189829	0.00014552534
113	0x3a5825a5	0.00082453556
114	0x3a730e89	0.000927188
115	0x3a84bfc8	0.0010127956
116	0x3a9a48fe	0.0011771021
117	0x3a915252	0.0011087155
118	0x3a8d587e	0.0010783819
119	0xba82161b	-0.0009924801
120	0x39f57839	0.00046819614
121	0xba206599	-0.0006118655
122	0x3a7a3ff2	0.0009546272
123	0x398cc94e	0.00026852865
124	0x3a56ce2b	0.00081941736
125	0x3a6f2ef6	0.0009124124
126	0x3a79b765	0.0009525924
127	0x3acfb3ba	0.0015846409
128	0x3b83ce5f	0.004022404
129	0x3a9eea41	0.0012124256
130	0x38bc126a	8.9679685e-05
131	0x3b13d5eb	0.0022557925
132	0xb84ff8f5	-4.9584505e-05
133	0xb904fb2a	-0.00012682067
134	0x3b1ac6bf	0.0023616997
135	0x3a9d6a54	0.0012009838
136	0x39775485	0.00023587242
137	0x3a1b1421	0.000591578
138	0x3aa4cb65	0.0012572823
139	0x3a9432fd	0.00113067
140	0x3af7a84e	0.0018894763
141	0x3a8f6a27	0.001094167
142	0x3ab941b2	0.0014133959
143	0x3a604808	0.00085556554
144	0x3ad35076	0.0016122002
145	0x3b227a24	0.002479204
146	0xb8b66cdf	-8.698715e-05
147	0x382a344c	4.0579864e-05
148	0x3b0c9917	0.0021453553
149	0x3b2c8173	0.0026322275
150	0xb834d5b5	-4.3114374e-05
151	0x3b53fac7	0.003234552
152	0x3a65b435	0.00087625097
153	0x3a99ca6e	0.0011733302
154	0x3ae5ce5a	0.0017532811
155	0x39badbd3	0.00035640466
156	0x3a7bd1cc	0.00096061523
157	0x3ae50fa1	0.0017475971
158	0x3aef6d1e	0.0018266772
159	0x3b18a4fd	0.00232917
160	0x3aaff5e4	0.0013424722
161	0x3aa73b8e	0.0012758838
162	0x3a376fd8	0.0006997562
163	0x3a83884c	0.0010035126
164	0x3afdfcd4	0.0019377717
165	0x3b565b28	0.0032708142
166	0xba3fb078	-0.00073123677
167	0xb997c3e8	-0.00028946926
168	0x3a93fed4	0.0011291155
169	0x398f7919	0.0002736531
170	0x3a2edcca	0.00066704734
171	0x3b4debba	0.0031421022
172	0x3a7e7a4e	0.0009707556
173	0x3b2c23eb	0.0026266526
174	0x3b545518	0.0032399353
175	0x3a86f2af	0.0010295714
176	0x39298f31	0.00016170439
177	0x3afa1ba1	0.001908172
178	0x3a48ce43	0.000766013
179	0x3a8ff382	0.0010982605
180	0x3ae7d4aa	0.001768728
181	0x37d30d15	2.5159252e-05
182	0x3b57396a	0.0032840618
183	0x3b1024e8	0.0021994654
184	0x3ae40fca	0.0017399725
185	0x3a293376	0.00064545067
186	0x3a46fef5	0.0007591092
187	0x3a05f5df	0.0005110185
188	0x3b7142d6	0.003681352
189	0x3b0c4d0c	0.0021408228
190	0x3a7e7384	0.0009706544
191	0x3a8fccbc	0.001097105
192	0xb7342951	-1.0738456e-05
193	0x3adf1f83	0.0017022941
194	0x3a0d698c	0.0005394451
195	0x3aa82385	0.0012827968
196	0x3a957557	0.0011402768
197	0x3b094d0d	0.0020950467
198	0xb884acb5	-6.32642e-05
199	0xba4a0ca9	-0.0007707575
200	0x3aaa925c	0.0013013589
201	0x3a835772	0.0010020568
202	0x3b9a5666	0.0047100065
203	0x3b16f2b9	0.0023032858
204	0x3b30894e	0.0026937309
205	0xb9ac0112	-0.00032807194
206	0x3a8e7c5e	0.0010870805
207	0x3ab2469b	0.0013601364
208	0x3adc881a	0.0016825229
209	0x3b2f0a21	0.0026708918
210	0x3afd9afb	0.0019348556
211	0x3ab58ae6	0.0013850599
212	0xbae0b8e3	-0.0017144944
213	0x390a4952	0.0001318802
214	0x3a995c5e	0.0011700501
215	0x3992c770	0.00027995883
216	0x3a8ae034	0.0010595382
217	0x393bc559	0.00017907227
218	0x3b123c44	0.0022313753
219	0x3ac19e06	0.0014771826
220	0x3ac36bd2	0.0014909452
221	0x3ae69d6e	0.0017594525
222	0x3ac31983	0.0014884922
223	0x39d57d0b	0.0004071969
224	0x3aeb9fc3	0.001797669
225	0x3b1efc52	0.0024259281
226	0x3a15d457	0.000571554
227	0x3aee9dfd	0.0018205043
228	0x3b676f36	0.003531409
229	0x3ae982ce	0.0017815472
230	0x3aa0054d	0.0012208611
231	0x3aa37131	0.0012469647
232	0x3a7973aa	0.00095158315
233	0x3abbbaed	0.0014322676
234	0x3a8ab41b	0.001058224
235	0x3a9440e1	0.0011310839
236	0x3b80098a	0.003907387
237	0x3a4abaaa	0.00077335036
238	0x3ab84546	0.0014058731
239	0x3ad88f39	0.0016522176
240	0x3a8b57d6	0.0010631036
241	0x3b0529c8	0.0020319093
242	0x3ac4f2f8	0.0015026024
243	0x3b5c2572	0.0033591655
244	0x3ac476ca	0.0014989015
245	0x3b2218bf	0.0024733988
246	0x3b025ead	0.0019892857
247	0x3ad1643c	0.0015975307
248	0x3a8e91b6	0.0010877165
249	0x3a9a30f1	0.0011763853
250	0x3aa0a33a	0.0012255677
251	0x3a7f5172	0.00097396143
252	0x3b1479a6	0.0022655516
253	0x3b0cf4fe	0.0021508331
254	0x3b05eda2	0.002043583
255	0x39aac34d	0.00032570437

rnn_layer.bias_hh_l0 f4 [512]
0	0x3b2b645e	0.0026152353
1	0xb9bd4a8d	-0.00036104434
2	0x3af0e0f3	0.0018377587
3	0x3b1256b3	0.0022329509
4	0x3a3d9ee6	0.00072334555
5	0x39157c56	0.00014256066
6	0x39f9b010	0.00047624158
7	0x3b1c94b0	0.0023892336
8	0x3a4be1d8	0.0007777489
9	0x3987f188	0.0002592916
10	0x393a3e2d	0.00017761505
11	0x3a264be3	0.00063437055
12	0x3a8a4a88	0.0010550776
13	0x3a8c4aac	0.0010703406
14	0x3aaa3fa8	0.0012988942
15	0x3a3999f6	0.0007080132
16	0x3af6b19e	0.0018821245
17	0x3a306d54	0.00067301583
18	0xb794b533	-1.7727352e-05
19	0x39cff702	0.00039666152
20	0x3aaa1598	0.0012976406
21	0x3af4ef68	0.0018687071
22	0x3a2310a4	0.0006220436
23	0x3aa629d6	0.0012677263
24	0x3a718644	0.00092134275
25	0x3aabe861	0.0013115519
26	0x3a57ccde	0.0008232127
27	0xba707446	-0.00091725995
28	0x385cea93	5.267055e-05
29	0x3a94b3a9	0.0011345047
30	0x3aaf10cf	0.001335645
31	0x3a83d27b	0.0010057235
32	0x3a8b7fce	0.0010642947
33	0x3a568cc6	0.0008184429
34	0x3a3cae05	0.0007197562
35	0xb800cfaf	-3.0711e-05
36	0x3ac53f92	0.0015048853
37	0x3a93a967	0.0011265696
38	0xb8de7d23	-0.000106090934
39	0xb8c6761e	-9.463377e-05
40	0x3aebc413	0.0017987512
41	0x3aecf4bc	0.0018078308
42	0x3a8f3cb4	0.0010928125
43	0xb7985cd1	-1.8163033e-05
44	0x3ac47a73	0.0014990106
45	0x3a1969b3	0.0005852237
46	0x3ab5cd3a	0.0013870366
47	0x39550744	0.0002031597
48	0xb98d2f6e	-0.00026928954
49	0x39896555	0.00026206175
50	0x39faf858	0.00047868746
51	0x3b070844	0.0020604292
52	0xba3d0f89	-0.0007212093
53	0xb95e2628	-0.00021185784
54	0x3b0b85c5	0.002128945
55	0x39a12d01	0.00030741844
56	0x3a9809ef	0.001159964
57	0x380624d0	3.1982374e-05
58	0x3a7ffc86	0.0009765107
59	0x39cc192a	0.0003892866
60	0x3b035676	0.0020040548
61	0x3a4b2f1b	0.0007750855
62	0x3a3668d8	0.0006958372
63	0x39a3aed2	0.00031220034
64	0x3a21aea5	0.00061676867
65	0x39f8accc	0.0004743099
66	0x3aa09f35	0.0012254479
67	0x3926007d	0.00015831176
68	0x3a22f163	0.0006215779
69	0x3a4e07af	0.00078594213
70	0xb9518d76	-0.00019984492
71	0x3b136e8a	0.0022496306
72	0x3ae0f493	0.0017162733
73	0x3a203c31	0.0006112485
74	0x3b2c6313	0.002630417
75	0x3a945a9d	0.0011318509
76	0x3ad02eaa	0.0015883048
77	0x3a0a7875	0.0005282232
78	0x3a148784	0.00056659454
79	0x38a77091	7.984148e-05
80	0x3ac1b0f5	0.0014777469
81	0x3a96d91e	0.0011508798
82	0x3b2bd2a3	0.0026218079
83	0x3b2f4ca4	0.0026748562
84	0xb8692d05	-5.5593457e-05
85	0x394183aa	0.00018454963
86	0x39a9cf54	0.00032388663
87	0xb88d818b	-6.747533e-05
88	0x3a926cfb	0.0011171395
89	0x3a6839ee	0.000885873
90	0x3b04f339	0.0020286574
91	0x3a0badb6	0.0005328314
92	0x3a0b892d	0.000532287
93	0x3a9b69d7	0.0011857104
94	0x3a46afd5	0.00075793016
95	0x3a8b0687	0.0010606804
96	0xb9dbc0f6	-0.00041914702
97	0x3a692fe7	0.00088953826
98	0x39886ee7	0.0002602257
99	0x3abc9d89	0.0014390211
100	0x3b1b3936	0.0023685223
101	0x3ae5e13e	0.0017538441
102	0x39564b38	0.00020436652
103	0x3a6707f4	0.0008813136
104	0xba1fc6b9	-0.00060949806
105	0x3a29a170	0.00064708944
106	0x3a8b0c8a	0.0010608595
107	0x3a0c7300	0.00053577125
108	0x3a96bfeb	0.0011501288
109	0x3b1abc7e	0.0023610885
110	0x39761077	0.00023466522
111	0x3a018f16	0.0004942281
112	0x39189829	0.00014552534
113	0x3a5825a5	0.00082453556
114	0x3a730e89	0.000927188
115	0x3a84bfc8	0.0010127956
116	0x3a9a48fe	0.0011771021
117	0x3a915252	0.0011087155
118	0x3a8d587e	0.0010783819
119	0xba82161b	-0.0009924801
120	0x39f57839	0.00046819614
121	0xba206599	-0.0006118655
122	0x3a7a3ff2	0.0009546272
123	0x398cc94e	0.00026852865
124	0x3a56ce2b	0.00081941736
125	0x3a6f2ef6	0.0009124124
126	0x3a79b765	0.0009525924
127	0x3acfb3ba	0.0015846409
128	0x3b83ce5f	0.004022404
129	0x3a9eea41	0.0012124256
130	0x38bc126a	8.9679685e-05
131	0x3b13d5eb	0.0022557925
132	0xb84ff8f5	-4.9584505e-05
133	0xb904fb2a	-0.00012682067
134	0x3b1ac6bf	0.0023616997
135	0x3a9d6a54	0.0012009838
136	0x39775485	0.00023587242
137	0x3a1b1421	0.000591578
138	0x3aa4cb65	0.0012572823
139	0x3a9432fd	0.00113067
140	0x3af7a84e	0.0018894763
141	0x3a8f6a27	0.001094167
142	0x3ab941b2	0.0014133959
143	0x3a604808	0.00085556554
144	0x3ad35076	0.0016122002
145	0x3b227a24	0.002479204
146	0xb8b66cdf	-8.698715e-05
147	0x382a344c	4.0579864e-05
148	0x3b0c9917	0.0021453553
149	0x3b2c8173	0.0026322275
150	0xb834d5b5	-4.3114374e-05
151	0x3b53fac7	0.003234552
152	0x3a65b435	0.00087625097
153	0x3a99ca6e	0.0011733302
154	0x3ae5ce5a	0.0017532811
155	0x39badbd3	0.00035640466
156	0x3a7bd1cc	0.00096061523
157	0x3ae50fa1	0.0017475971
158	0x3aef6d1e	0.0018266772
159	0x3b18a4fd	0.00232917
160	0x3aaff5e4	0.0013424722
161	0x3aa73b8e	0.0012758838
162	0x3a376fd8	0.0006997562
163	0x3a83884c	0.0010035126
164	0x3afdfcd4	0.0019377717
165	0x3b565b28	0.0032708142
166	0xba3fb078	-0.00073123677
167	0xb997c3e8	-0.00028946926
168	0x3a93fed4	0.0011291155
169	0x398f7919	0.0002736531
170	0x3a2edcca	0.00066704734
171	0x3b4debba	0.0031421022
172	0x3a7e7a4e	0.0009707556
173	0x3b2c23eb	0.0026266526
174	0x3b545518	0.0032399353
175	0x3a86f2af	0.0010295714
176	0x39298f31	0.00016170439
177	0x3afa1ba1	0.001908172
178	0x3a48ce43	0.000766013
179	0x3a8ff382	0.0010982605
180	0x3ae7d4aa	0.001768728
181	0x37d30d15	2.5159252e-05
182	0x3b57396a	0.0032840618
183	0x3b1024e8	0.0021994654
184	0x3ae40fca	0.0017399725
185	0x3a293376	0.00064545067
186	0x3a46fef5	0.0007591092
187	0x3a05f5df	0.0005110185
188	0x3b7142d6	0.003681352
189	0x3b0c4d0c	0.0021408228
190	0x3a7e7384	0.0009706544
191	0x3a8fccbc	0.001097105
192	0xb7342951	-1.0738456e-05
193	0x3adf1f83	0.0017022941
194	0x3a0d698c	0.0005394451
195	0x3aa82385	0.0012827968
196	0x3a957557	0.0011402768
197	0x3b094d0d	0.0020950467
198	0xb884acb5	-6.32642e-05
199	0xba4a0ca9	-0.0007707575
200	0x3aaa925c	0.0013013589
201	0x3a835772	0.0010020568
202	0x3b9a5666	0.0047100065
203	0x3b16f2b9	0.0023032858
204	0x3b30894e	0.0026937309
205	0xb9ac0112	-0.00032807194
206	0x3a8e7c5e	0.0010870805
207	0x3ab2469b	0.0013601364
208	0x3adc881a	0.0016825229
209	0x3b2f0a21	0.0026708918
210	0x3afd9afb	0.0019348556
211	0x3ab58ae6	0.0013850599
212	0xbae0b8e3	-0.0017144944
213	0x390a4952	0.0001318802
214	0x3a995c5e	0.0011700501
215	0x3992c770	0.00027995883
216	0x3a8ae034	0.0010595382
217	0x393bc559	0.00017907227
218	0x3b123c44	0.0022313753
219	0x3ac19e06	0.0014771826
220	0x3ac36bd2	0.0014909452
221	0x3ae69d6e	0.0017594525
222	0x3ac31983	0.0014884922
223	0x39d57d0b	0.0004071969
224	0x3aeb9fc3	0.001797669
225	0x3b1efc52	0.0024259281
226	0x3a15d457	0.000571554
227	0x3aee9dfd	0.0018205043
228	0x3b676f36	0.003531409
229	0x3ae982ce	0.0017815472
230	0x3aa0054d	0.0012208611
231	0x3aa37131	0.0012469647
232	0x3a7973aa	0.00095158315
233	0x3abbbaed	0.0014322676
234	0x3a8ab41b	0.001058224
235	0x3a9440e1	0.0011310839
236	0x3b80098a	0.003907387
237	0x3a4abaaa	0.00077335036
238	0x3ab84546	0.0014058731
239	0x3ad88f39	0.0016522176
240	0x3a8b57d6	0.0010631036
241	0x3b0529c8	0.0020319093
242	0x3ac4f2f8	0.0015026024
243	0x3b5c2572	0.0033591655
244	0x3ac476ca	0.0014989015
245	0x3b2218bf	0.0024733988
246	0x3b025ead	0.0019892857
247	0x3ad1643c	0.0015975307
248	0x3a8e91b6	0.0010877165
249	0x3a9a30f1	0.0011763853
250	0x3aa0a33a	0.0012255677
251	0x3a7f5172	0.00097396143
252	0x3b1479a6	0.0022655516
253	0x3b0cf4fe	0.0021508331
254	0x3b05eda2	0.002043583
255	0x39aac34d	0.00032570437

classifier.weight f4 [15, 128]
0	0xbc917294	-0.01775483
1	0xbd9d601b	-0.07684346
2	0x3df7c4e6	0.12098102
3	0x3d6cd105	0.057816524
4	0xbd0e8b71	-0.03480095
5	0x3d84e81a	0.06489582
6	0x3cde6181	0.027146103
7	0x3db07455	0.086159386
8	0x3d43557b	0.047688942
9	0x3db830a1	0.0899365
10	0x3da4fc1d	0.08055899
11	0xbb309a37	-0.0026947388
12	0x3d5ec481	0.05438662
13	0xbdb6bd47	-0.089228205
14	0xbd0268da	-0.031838275
15	0xbe170d47	-0.14751159
16	0xbd98c068	-0.074585736
17	0xbd33f7e5	-0.043937583
18	0x3d2f103f	0.042740103
19	0x3d97bb34	0.07408753
20	0x3db4636f	0.08808028
21	0xbd82cec3	-0.06387093
22	0x3c67c238	0.014145426
23	0x3dc2f832	0.09519996
24	0x3c4d9d24	0.012549672
25	0x3e1685d3	0.14699487
26	0x3e2aab03	0.16666798
27	0x3df778e7	0.12083607
28	0xbe302d16	-0.17204699
29	0xbd5a7f25	-0.05334391
30	0xbd8f671c	-0.070020884
31	0x3d333cb2	0.043759055
32	0x38f0ce5c	0.00011482529
33	0x3d8bc6f7	0.06825059
34	0xbde1f946	-0.11033873
35	0xbcafd478	-0.021463618
36	0xbdd866bb	-0.10566469
37	0xbdf06800	-0.117385864
38	0xbd0345e4	-0.032049075
39	0x3dfe40b0	0.12414682
40	0xbc384549	-0.011246988
41	0xbce4abec	-0.02791401
42	0x3cf683b9	0.030092107
43	0x3e052b16	0.13004717
44	0xbe6f8499	-0.23390426
45	0x3d8f2cce	0.06990968
46	0x3e1dcccf	0.1541016
47	0xbb859594	-0.004076669
48	0x3d2e76f8	0.042593926
49	0xbd065a28	-0.032800823
50	0x3d98263c	0.07429168
51	0xbe1e6a26	-0.1547018
52	0xbdfe07d6	-0.12403838
53	0x3d152e58	0.03642115
54	0xbc9e08a0	-0.019291222
55	0xbd4e8d08	-0.050427467
56	0x3d8ba998	0.06819457
57	0xbd594d5d	-0.053052295
58	0x3d49ed21	0.04929841
59	0x3c2f418f	0.010696783
60	0xbcb33774	-0.021877028
61	0x3c50d48f	0.01274599
62	0x3d35aba1	0.04435313
63	0xbd8bb1c6	-0.06821017
64	0x3d063998	0.03276977
65	0xbdba6330	-0.0910095
66	0xbd690b9d	-0.05689584
67	0xbde0d282	-0.10977651
68	0xbe11af5c	-0.1422705
69	0x3de8f3d3	0.11374631
70	0x3d7f04f8	0.062260598
71	0xbdb07395	-0.086157955
72	0xbe34a461	-0.1764083
73	0xbda38618	-0.07984561
74	0x3dd2a60d	0.10285578
75	0x3c0f40e8	0.008743502
76	0x3dac6288	0.08417231
77	0xbd37ef92	-0.044906206
78	0x3e278bf8	0.16361988
79	0x3d470f3e	0.04859852
80	0x3ac77e50	0.0015220139
81	0x3d560aa3	0.052256238
82	0xbd056d30	-0.032574832
83	0xbd875b95	-0.06609265
84	0xbd81e340	-0.063421726
85	0xbb7b9e91	-0.0038394073
86	0xbe7a54a2	-0.24446347
87	0x3d105622	0.035238393
88	0x3d6fcb5f	0.05854356
89	0xbd542534	-0.051793292
90	0x3d036837	0.03208181
91	0xbd748141	-0.05969358
92	0x3b3d2968	0.0028863791
93	0xbd81c862	-0.06337048
94	0xbdc8a585	-0.09797195
95	0x3cc64fc1	0.024207952
96	0xbda560ff	-0.08075141
97	0xbcf2697c	-0.029591314
98	0x3cba488b	0.02273967
99	0xbc3235cb	-0.010877083
100	0xbdaf6a33	-0.08565178
101	0x3df88149	0.12134034
102	0x3d666d3f	0.05625653
103	0x3dc85b53	0.09783044
104	0xbd059086	-0.03260853
105	0x3cfba111	0.03071645
106	0x3dd6d162	0.10489155
107	0x3dde973e	0.10868691
108	0xbcce5efd	-0.025191778
109	0x3d391784	0.045188442
110	0x3e2e020c	0.16992968
111	0xbda00e97	-0.07815283
112	0x3d87d52d	0.06632457
113	0xbc9fa655	-0.019488493
114	0x3cb6b1f7	0.022301657
115	0x3d669967	0.05629864
116	0xbc1b1bfa	-0.009467119
117	0x3d07988f	0.033104476
118	0x3d77e6bb	0.060522776
119	0xbe2ca1ca	-0.16858593
120	0x3e01e6c9	0.12685694
121	0xbdc0b3f6	-0.09409325
122	0x3d1ca029	0.038238678
123	0x3de129c4	0.10994294
124	0xbe464901	-0.19363786
125	0x3da4e1b3	0.08050861
126	0x3d5fab36	0.05460664
127	0xbdb6ad5b	-0.08919784
128	0xbddcf33a	-0.10788579
129	0xbcfd0839	-0.03088771
130	0xbd821793	-0.06352153
131	0x3cd12364	0.02552957
132	0xbe04d5b7	-0.1297215
133	0xbd1b8814	-0.03797157
134	0x3cb50e7b	0.022101631
135	0xbdb552b2	-0.088536635
136	0x3caa5f4c	0.020797394
137	0xbdaaedb6	-0.08346121
138	0x3db2dbdc	0.08733341
139	0xb973f5ed	-0.000232659
140	0x3d817557	0.06321209
141	0xbd84442f	-0.064583175
142	0xbcfd2038	-0.030899152
143	0x3de5d3e0	0.112220526
144	0x3d5869bd	0.052835215
145	0xbde9adba	-0.11410089
146	0x3d075c81	0.033047203
147	0x3bfbbf79	0.0076827374
148	0xbcc9f9c6	-0.024655234
149	0xbd92fb70	-0.07176864
150	0xbc1585af	-0.009126111
151	0x3dd75e7e	0.1051607
152	0xbdf4ceec	-0.1195353
153	0xbe06dd46	-0.13170347
154	0xbddec9f8	-0.10878366
155	0xbb80ddab	-0.003932675
156	0x3dd42166	0.10357933
157	0xbd0e4e4f	-0.03474265
158	0xbe19a7e8	-0.15005457
159	0x3d681288	0.056658298
160	0x3c0d1aab	0.008612315
161	0x3bce6445	0.006298574
162	0xbb32a7d3	-0.0027260676
163	0xbc2d5509	-0.010579356
164	0x3d1868b8	0.037209243
165	0x3d23cef8	0.039992303
166	0xbd7c9695	-0.061667044
167	0x3d20512f	0.039139923
168	0xbde4b770	-0.111678004
169	0x3d8c179c	0.06840441
170	0xbdb42040	-0.08795214
171	0xbc8e2bb4	-0.017354824
172	0x3dac7df9	0.08422465
173	0xbe0e86d5	-0.13918622
174	0x3da60851	0.08107055
175	0x3daebf0c	0.08532533
176	0xbe1cc899	-0.15310897
177	0x3d4c6e3b	0.04990981
178	0x3d2d0090	0.042236865
179	0xbd869489	-0.065712996
180	0x3da02098	0.07818717
181	0x3d9a4884	0.075333625
182	0x3d3a1917	0.045434084
183	0xbb447282	-0.0029975479
184	0x3d667e15	0.056272585
185	0xbe20dfd5	-0.15710385
186	0xbe19ad58	-0.15007532
187	0x3dbb3dee	0.091426715
188	0x3d53177d	0.051536072
189	0x3e05dfd8	0.13073671
190	0xbccd6c59	-0.025076078
191	0x3d37ad13	0.04484279
192	0x3db10e92	0.08645357
193	0x3ce5afd1	0.028037937
194	0x3d179cb3	0.037014674
195	0xbdf0f3dd	-0.11765263
196	0xbd8572cd	-0.06516037
197	0xbd420d33	-0.04737587
198	0x3cf17cc8	0.029478446
199	0xbd9ab45b	-0.07553931
200	0xbdb4aef9	-0.08822436
201	0xbcf5edc7	-0.030020608
202	0xbd5c2766	-0.05374851
203	0xbd74a9df	-0.059732314
204	0x3d78ba55	0.060724575
205	0x3e0a06cb	0.13479154
206	0xbc24f3b3	-0.010067868
207	0x3d91d746	0.07121138
208	0x3d3b094e	0.04566317
209	0x3d14dca6	0.03634324
210	0xbda39a09	-0.07988364
211	0xbdee9357	-0.116491966
212	0xbd204bdf	-0.039134856
213	0xbcca2837	-0.024677379
214	0xbdea4901	-0.11439706
215	0x3a6f79b1	0.000913526
216	0x3c9f8a10	0.019475013
217	0xbd95a6cb	-0.07307204
218	0xbd76d04c	-0.06025724
219	0x3d7d2099	0.061798666
220	0x3d989b6b	0.074515186
221	0xbd13fd7f	-0.036130425
222	0xbd5ce387	-0.053927924
223	0x3d332b0a	0.043742217
224	0xba0c9d24	-0.0005363992
225	0xbd9cd9c2	-0.076587215
226	0x3c9410d0	0.018074423
227	0xbde0e90c	-0.1098195
228	0x3d0d0d7d	0.03443669
229	0x3ab18522	0.0013543705
230	0xbda721aa	-0.08160718
231	0xbe4173ff	-0.18891905
232	0x3d4e98f9	0.050438855
233	0x3dcd7651	0.10032333
234	0xbdab7849	-0.08372552
235	0x3e0a67cb	0.13516156
236	0x3d5c77a4	0.053825036
237	0xbdd97695	-0.10618321
238	0xbb92e9df	-0.004483446
239	0x3e3801bc	0.17969412
240	0x3c897ad8	0.01678221
241	0x3ca41d71	0.02003357
242	0x3db88adb	0.090108596
243	0x395697e9	0.00020465221
244	0x3d8c8422	0.0686114
245	0xbda1df3e	-0.07903908
246	0xbd87b2e6	-0.06625919
247	0x3d77f54f	0.06053668
248	0x3c0837ab	0.0083140535
249	0xbdbdff89	-0.09277255
250	0xbe2678ba	-0.16256991
251	0x3c3f0285	0.011658316
252	0xbe49b5c0	-0.19698238
253	0x3dad7c02	0.08470918
254	0x3d93827d	0.07202623
255	0xbe212989	-0.157385

classifier.bias f4 [15]
0	0x3da0e0ae	0.07855354
1	0x3d7fd598	0.06245956
2	0x3ca56128	0.02018793
3	0x3aed2e03	0.0018095378
4	0x3dadb66f	0.08482062
5	0xbce684ab	-0.028139433
6	0xbd9c47b9	-0.076308675
7	0x3d39f2c0	0.04539752
8	0xbc1c76fa	-0.009549851
9	0x3dceac14	0.10091415
10	0xbcda416b	-0.026642522
11	0xbcdb0938	-0.026737794
12	0x3db8c7a0	0.090224504
13	0x3cfeb1e4	0.031090684
14	0xbe35631d	-0.1771359
